checkpointDuelingTest_6.pth (torch_old, 62535 bytes, 11 tensors)

fc1.weight f4 [64, 37]
0	0xbdd32994	-0.10310665
1	0x3c66e19e	0.014091877
2	0xbd87ce01	-0.06631089
3	0x3d93ed3f	0.072229855
4	0x3c47c6cc	0.012193393
5	0xbdf9314a	-0.12167604
6	0xbe0f5308	-0.13996518
7	0x3e0bcc0b	0.13652055
8	0x3e083df0	0.13304877
9	0x3f219134	0.6311219
10	0xbd9b7f80	-0.07592678
11	0xbca3fcf2	-0.020018075
12	0x3d9704fc	0.073739976
13	0xbe10e7c2	-0.14150909
14	0xbd3bdad4	-0.045862988
15	0xbd90498b	-0.07045277
16	0xbc1d3de6	-0.009597277
17	0xbd3321fb	-0.04373358
18	0xbaef15e0	-0.0018240772
19	0x3d0ed30d	0.034869242
20	0xbd4e24ba	-0.050327994
21	0xba4ac46b	-0.0007734957
22	0xbdb756a9	-0.08952076
23	0xbc1a2aa0	-0.009409577
24	0xbe6e8f98	-0.23296964
25	0xbdb145ad	-0.08655868
26	0x3da34cf7	0.07973664
27	0x3bb2ded2	0.005458691
28	0xbd9ac420	-0.07556939
29	0xbe93bf84	-0.28857052
30	0x3da43651	0.080181725
31	0x3e0c221e	0.1368489
32	0xbbfa3b60	-0.0076364726
33	0x3df831a5	0.12118844
34	0xbd3cc710	-0.04608828
35	0x3e52885a	0.20559826
36	0x3d90624a	0.07049997
37	0xbdc51c81	-0.09624577
38	0xbd6d26f3	-0.057898473
39	0xbd214023	-0.039367806
40	0xbe3be0ba	-0.18347445
41	0xbe910498	-0.28323817
42	0xbec9c63b	-0.3940905
43	0xbd9e3b38	-0.07726139
44	0xbe930ca5	-0.28720585
45	0x3e3045df	0.17214154
46	0xbe522621	-0.20522358
47	0x3dbee870	0.09321678
48	0xbd864d7d	-0.065577485
49	0xbeda0d1f	-0.42588136
50	0xbd62ac58	-0.05534014
51	0xbe45bb61	-0.1930976
52	0x3e6cc65a	0.2312254
53	0xbe7a0739	-0.24416818
54	0x3e0e42bf	0.13892649
55	0xbe7c008f	-0.24609588
56	0xbe4838c2	-0.19552901
57	0xbea6efc2	-0.32604796
58	0x3b8598fb	0.0040770746
59	0x3dfb5a49	0.1227308
60	0xbeaf320d	-0.34217873
61	0xbd73cfb3	-0.05952425
62	0xbe455f99	-0.19274749
63	0xbe8e81eb	-0.27833495
64	0x3d60e234	0.054903224
65	0x3e59ee81	0.21282388
66	0xbb360629	-0.0027774668
67	0xbe8dc976	-0.27692765
68	0xbdb297d8	-0.08720368
69	0x3d8fcd8f	0.07021629
70	0xbd4b5206	-0.04963877
71	0x3cc9ff65	0.024657914
72	0x3daa85eb	0.08326324
73	0xbe02967d	-0.12752719
74	0x3b22e36f	0.00248548
75	0xbe1a2c34	-0.15055925
76	0xbf01d768	-0.5071931
77	0x3bbfdb8a	0.0058550285
78	0x3eb9d885	0.36298004
79	0xbdd942aa	-0.10608418
80	0xbd2a578f	-0.04158741
81	0xbe03e9fd	-0.12882228
82	0x3dc2783a	0.09495588
83	0x3de0d179	0.10977454
84	0x3cced6b9	0.025248872
85	0x3e59ecd0	0.21281743
86	0xbe126225	-0.14295252
87	0xbeb07e22	-0.34471232
88	0xbec2d7f6	-0.3805539
89	0xbdd88a86	-0.10573296
90	0xbe0331c3	-0.12811951
91	0xbd220dc7	-0.03956392
92	0xbe6efb42	-0.23338035
93	0xbe25d1ec	-0.1619336
94	0xbe19d0ab	-0.15021007
95	0xbe57380b	-0.21017472
96	0x3e37c72a	0.17947069
97	0x3dd5584f	0.10417234
98	0xbe16cc56	-0.14726385
99	0x3d5101b7	0.051027026
100	0x3df7fb98	0.121085346
101	0x3b6ee256	0.0036450825
102	0xbc718688	-0.014741547
103	0x3e6519ed	0.22373171
104	0x3d916a20	0.0710032
105	0xbd1338f4	-0.035942987
106	0x3c09207d	0.008369562
107	0x3e4263a5	0.18983324
108	0x3ea95ff3	0.33081016
109	0x3bc93402	0.006140233
110	0xbc0ca739	-0.008584791
111	0x3e1608e6	0.14651832
112	0xbdf5e758	-0.12007016
113	0x3e499ac8	0.1968795
114	0x3df4a055	0.119446434
115	0xbe1e52ed	-0.15461321
116	0xbdcf8f45	-0.10134748
117	0xbd263aa7	-0.04058328
118	0xbbbfa9ad	-0.0058490844
119	0xbe1ae1de	-0.15125224
120	0x3e3f82e2	0.18702272
121	0x3e7674b0	0.2406795
122	0xbd2825f5	-0.041051824
123	0x3cadbe8e	0.021209028
124	0xbe5b7dc5	-0.21434696
125	0xbef57d43	-0.4794713
126	0xbb2a1597	-0.002595281
127	0xbd94b3fb	-0.07260891
128	0xbd200f2b	-0.039076965
129	0x3dff00c8	0.12451321
130	0x3e07eccf	0.13273929
131	0xbdd31f47	-0.103087
132	0x3c36b4a8	0.01115147
133	0x3dde179e	0.10844348
134	0x3d954e1f	0.07290291
135	0x3e9af9d8	0.3026874
136	0xbe92073b	-0.2852114
137	0x3cbad712	0.022807632
138	0x3e0f1f2c	0.13976735
139	0xbbf9f2c3	-0.0076278164
140	0xbd02cdb3	-0.03193445
141	0xbe00b506	-0.12569055
142	0xbddad9cf	-0.10686075
143	0x3dd003a8	0.101569474
144	0x3d97f19d	0.07419131
145	0x3da42a8a	0.08015926
146	0x3d855a37	0.06511348
147	0xbd6e400f	-0.05816656
148	0xbf04d5d9	-0.51888806
149	0x3e5283ce	0.20558092
150	0x3e9fcc7d	0.312107
151	0xbc6d6846	-0.014490193
152	0xbf11e021	-0.5698262
153	0xbdff48ed	-0.12465081
154	0x3e19ab06	0.15006647
155	0x3dde3f4f	0.10851919
156	0x3ce5f9c6	0.028073203
157	0xbd3cb31c	-0.04606925
158	0xbd9add9c	-0.075618
159	0xbdd48b9b	-0.1037819
160	0x3c80fb12	0.01574472
161	0x3de7860e	0.11304866
162	0x3e117c68	0.14207613
163	0xbea37b90	-0.31930208
164	0x3e215aac	0.15757245
165	0x3e5dd187	0.2166196
166	0x3c9c21fb	0.019059172
167	0xbe4d0d61	-0.20024635
168	0xbe12d19b	-0.1433777
169	0xbdd9df9c	-0.10638353
170	0xbd7a7675	-0.061148126
171	0x3dbe5846	0.092941806
172	0xbb458095	-0.0030136455
173	0xbe50b22e	-0.2038047
174	0x3e128253	0.14307527
175	0x3d1ccda2	0.038282044
176	0x3cd46fb0	0.025932163
177	0x3cbcf130	0.023064226
178	0x3d440026	0.047851704
179	0xbdb213cd	-0.08695183
180	0x3d2577b3	0.040397357
181	0x3e388b30	0.18021846
182	0x3e730388	0.23731816
183	0x3ca48ad5	0.020085732
184	0xbc2473ce	-0.010037376
185	0xbce978ad	-0.028499926
186	0xbd1dd358	-0.03853163
187	0xbe17614e	-0.14783213
188	0xbd90902d	-0.07058749
189	0x3c613e40	0.013747752
190	0xbdc43fd4	-0.09582487
191	0x3d2b6c35	0.04185124
192	0x3d9b0c77	0.07570737
193	0x3e71e5b8	0.23622787
194	0x3eae115e	0.33997625
195	0xbeb42457	-0.35183975
196	0x3d809973	0.06279268
197	0x3e0f5568	0.13997424
198	0x3e5f93e3	0.21833758
199	0xbe0c6a0f	-0.13712333
200	0xbe0e5b4a	-0.13902012
201	0xbe129949	-0.14316286
202	0xbb6d738e	-0.0036232206
203	0x3e0a369e	0.13497397
204	0x3e845e96	0.25853413
205	0xbe1126e9	-0.14175
206	0xbd26b702	-0.040701874
207	0x3d9d6fee	0.076873645
208	0xbd4d17e0	-0.050071597
209	0xbd713b83	-0.058894645
210	0xbe59a053	-0.21252565
211	0x3cf141dc	0.02945035
212	0xbdc7e230	-0.09759939
213	0x3dc744a6	0.097298905
214	0x3e97e4bb	0.29666695
215	0xbe274f3f	-0.16338824
216	0xbd7820aa	-0.060578026
217	0x3dadf4a0	0.08493924
218	0x3d8b5d83	0.06804945
219	0x3e8790aa	0.26477557
220	0xbd582985	-0.05277397
221	0xbc75da61	-0.015005679
222	0xbc168c4f	-0.009188726
223	0xbc3c714c	-0.011501621
224	0x3d2faeba	0.04289124
225	0xbe126353	-0.14295702
226	0xbe2ae1b7	-0.16687666
227	0xbe443f14	-0.19164687
228	0xbd1bfa72	-0.03808064
229	0x3e0347cc	0.12820357
230	0x3d225277	0.039629426
231	0x3e2d3800	0.16915894
232	0xbcbfcc41	-0.023412826
233	0x3d831a6e	0.064015254
234	0x3e26db5a	0.16294613
235	0x3d1e6fa2	0.03868068
236	0xbe2b7f10	-0.16747689
237	0xbe771ccb	-0.24132077
238	0x3ca1fcc4	0.019773848
239	0x3e405793	0.18783407
240	0xbe805436	-0.25064248
241	0xbe2a83e9	-0.16651882
242	0xbd8630b4	-0.06552258
243	0x3d5a73e3	0.053333174
244	0x3e00bc21	0.12571765
245	0x3ebd8aad	0.37019864
246	0x3e6d44d8	0.23170793
247	0xbf19254f	-0.59822553
248	0x3cd1f064	0.025627322
249	0x3e8d2066	0.2756378
250	0x3d88aa8f	0.066731565
251	0xbedcc689	-0.4312022
252	0xbdff47d9	-0.12464876
253	0x3e4d9162	0.2007499
254	0xbca83adc	-0.020535879
255	0x3e3d762a	0.18502107

fc1.bias f4 [64]
0	0x3c2be286	0.010491019
1	0xbdf13ef1	-0.11779583
2	0x3da78aa0	0.081807375
3	0xbdd3a677	-0.10334485
4	0x3e2f4edf	0.1711993
5	0xbe150972	-0.14554384
6	0xbde89ad7	-0.11357658
7	0x3c1e57c3	0.009664479
8	0xbe8d4950	-0.27594995
9	0xbdb9be35	-0.09069482
10	0xbcef6134	-0.029221155
11	0x3da890cb	0.08230742
12	0xbe05e1ea	-0.1307446
13	0x3d86ba84	0.06578544
14	0xbd8966f7	-0.06709092
15	0x3ac7ce6b	0.0015244012
16	0xbe0b60d7	-0.1361116
17	0x3db89aea	0.090139225
18	0x3db95e56	0.09051196
19	0xbe00af2d	-0.12566824
20	0x3d9f4ddf	0.077785246
21	0xbe035df8	-0.12828815
22	0xbde7a2b3	-0.11310329
23	0x3e66d888	0.22543538
24	0x3cdaa757	0.026691122
25	0x3d16756a	0.03673307
26	0xbd522d79	-0.051312897
27	0xbd0eec48	-0.034893304
28	0xbc43d910	-0.011953607
29	0x3e2dc750	0.16970563
30	0xbd43ba7c	-0.047785267
31	0x3d495a9d	0.04915868
32	0x3c260bd7	0.010134659
33	0x3ca971e8	0.020684198
34	0x3d2d88a7	0.04236665
35	0xbd8720c8	-0.065980494
36	0x3e50a93d	0.2037706
37	0xbe378eed	-0.17925616
38	0xbe0d294c	-0.13785285
39	0xbe5c6a1c	-0.21524853
40	0x3d34e25f	0.044161197
41	0xbcaf9c53	-0.021436846
42	0x3df5efcc	0.12008628
43	0xbe2f87c5	-0.17141636
44	0x3c5357e7	0.0128993755
45	0xbe0fd32c	-0.140454
46	0x3e0bfa6d	0.13669749
47	0x3c8df4e7	0.017328693
48	0x3e01017b	0.12598221
49	0xbe0a64a9	-0.13514961
50	0x3e5d4e31	0.21611859
51	0x3d952f6b	0.07284435
52	0x3d7d79a2	0.061883576
53	0xbd1913f4	-0.037372544
54	0xbe0036dd	-0.12520929
55	0xbd07fae4	-0.033198252
56	0x3d0cae43	0.034345876
57	0xbd824a9a	-0.06361885
58	0xbdd7bf4f	-0.10534536
59	0xbcaccb57	-0.021093054
60	0x3c50e29a	0.0127493385
61	0x3e1f69b3	0.15567665
62	0x3df5feae	0.12011467
63	0xbe190739	-0.14944161

fc2.weight f4 [64, 64]
0	0x3a04a3c6	0.00050598045
1	0x3d7d5729	0.0618507
2	0x3cf7f567	0.030268384
3	0x3dacc5fa	0.084361985
4	0x3d953172	0.072848216
5	0xbe0da6bb	-0.13833134
6	0xbd86a948	-0.065752566
7	0xbe2f4441	-0.1711588
8	0xbd92cfad	-0.07168517
9	0xbca10542	-0.019655827
10	0x3cfa6a73	0.030568337
11	0xbe09de97	-0.13463818
12	0x3c02bfcc	0.007980298
13	0x3d685365	0.056720156
14	0xbc7f4b68	-0.015581943
15	0x3b8410a4	0.004030304
16	0xbd4b0ba3	-0.049571645
17	0x3d9623ad	0.07331023
18	0xbde35b65	-0.111014165
19	0x3e0fd42c	0.14045781
20	0x3cecf1c5	0.028923878
21	0xbe0cce10	-0.13750482
22	0x3d3cc62d	0.046087433
23	0xbdc9e602	-0.09858324
24	0xbe0102f2	-0.1259878
25	0xbe02037a	-0.12696639
26	0xbe1a956c	-0.15096062
27	0x3cae74bd	0.0212959
28	0x3db5bd44	0.0887399
29	0xbdf6ea6b	-0.120564304
30	0xbd6ceb72	-0.057841726
31	0xbbed9df0	-0.0072514936
32	0x3d0168f9	0.03159425
33	0xbdb1f5d7	-0.08689468
34	0x3cb2e0b6	0.021835666
35	0xbc6a5438	-0.014302306
36	0xbd47cce7	-0.048779394
37	0xbd1cafff	-0.03825378
38	0x3d30d9f9	0.043176625
39	0x3d66139a	0.056171037
40	0x3cafda8f	0.021466522
41	0xbe334225	-0.17505701
42	0x3cec687a	0.028858412
43	0x3b0d8301	0.0021592977
44	0x3c66ed8e	0.014094723
45	0xbe0d2496	-0.13783488
46	0xbd5504e1	-0.052006606
47	0xbe6ee0b4	-0.23327905
48	0xbc9e2aa7	-0.019307448
49	0x3d0f65d7	0.03500923
50	0x3ca18f83	0.019721752
51	0x3d854c2b	0.065086685
52	0x3dc0f39e	0.09421466
53	0xbe3d12a3	-0.1846414
54	0xbda1a686	-0.0789309
55	0xbc8b5e51	-0.017012747
56	0x3da5aef5	0.08090011
57	0xbcf3dae0	-0.029767454
58	0xbd95d0d1	-0.07315219
59	0xbc6834e0	-0.014172763
60	0x3d81263e	0.06306122
61	0xbe37fcb6	-0.17967495
62	0xbc32c9d8	-0.010912381
63	0xbe00dd40	-0.125844
64	0xbe25560b	-0.16146104
65	0x3dabdd31	0.08391798
66	0xbcf015cb	-0.029307267
67	0xbcd3bf38	-0.025848016
68	0xbdc1f038	-0.09469646
69	0xbec12c9f	-0.37729356
70	0x3d062cf6	0.03275772
71	0x3d41813f	0.0472424
72	0x3d22458d	0.03961711
73	0xbd418e70	-0.04725498
74	0xbd97b573	-0.074076556
75	0xbd6aebab	-0.057353657
76	0xbc13915a	-0.0090068225
77	0x3d8f1d01	0.06987954
78	0x3e074796	0.13210902
79	0xbd8c1b57	-0.06841152
80	0xbe8f4ebe	-0.27989763
81	0x3dd28d03	0.10280802
82	0x3de96ca5	0.113976754
83	0xbe850206	-0.25978106
84	0xbe1cd51a	-0.15315667
85	0xbd5f87c5	-0.05457284
86	0xbe00648e	-0.12538359
87	0xbd1d1928	-0.03835407
88	0xbe653be1	-0.22386123
89	0x3d9a7b3a	0.07543035
90	0xbdc7f468	-0.09763414
91	0xbc475bfb	-0.012167926
92	0xbc77f792	-0.015134709
93	0x3d912572	0.0708722
94	0x3e0edbb1	0.13950993
95	0xbd7fa156	-0.06240972
96	0xbc3d5b12	-0.011557357
97	0xbe54214a	-0.20715824
98	0xbd6dc3c0	-0.05804801
99	0x3d32e345	0.043673772
100	0xbd03f151	-0.03221256
101	0xbe018dce	-0.1265175
102	0x3e29faf9	0.16599645
103	0xbc73e306	-0.01488567
104	0x3e193857	0.14962898
105	0xbd1f9c37	-0.038967337
106	0xbdad3585	-0.08457474
107	0xbe410d7c	-0.188528
108	0x3ca83d90	0.020537168
109	0xbd902ef8	-0.070402086
110	0xbdcd5033	-0.100250624
111	0x3e0148c3	0.12625413
112	0xbd3d8c32	-0.04627628
113	0xbc626314	-0.013817567
114	0x3e041a19	0.1290058
115	0xbcd7761b	-0.026301434
116	0xbdd1c34d	-0.10242329
117	0xbb2c6ac7	-0.0026308761
118	0xbe019245	-0.12653454
119	0x3e12d11c	0.14337581
120	0xbeb67814	-0.35638487
121	0x3ca7687e	0.020435568
122	0x3cb3c89b	0.021946242
123	0xbdc72b58	-0.09725064
124	0x3c122bb0	0.008921549
125	0xbd028e36	-0.031873904
126	0xbe0c1fc0	-0.13683987
127	0xbdfe1797	-0.12406843
128	0xbbc97fa9	-0.0061492515
129	0x3dad1c9f	0.08452725
130	0xbc365895	-0.011129518
131	0xbb848c1e	-0.0040450236
132	0xbe479e50	-0.19493985
133	0xbdd91dad	-0.10601363
134	0x3da1fd28	0.07909614
135	0x3e846170	0.2585559
136	0xbe1a38c5	-0.15060718
137	0xbe84d8df	-0.2594671
138	0x3cb8917f	0.022530315
139	0x3dbd5252	0.09244217
140	0x3d7ab855	0.06121095
141	0xbe2e7d2a	-0.17039934
142	0xbdc91628	-0.09818679
143	0xbe137eb4	-0.14403802
144	0x3d8dfe7e	0.06933306
145	0xbe8551ee	-0.2603907
146	0xbd65a37c	-0.056064114
147	0xbe1d7c44	-0.15379435
148	0xbe857f08	-0.2607348
149	0xbdf4661f	-0.119335406
150	0xbeaf2e93	-0.3421522
151	0xbd86e90f	-0.06587421
152	0x3dc6fc21	0.097160585
153	0x3cd30cc5	0.025762925
154	0xbdc75703	-0.09733393
155	0xbea218b0	-0.3165946
156	0xbce0b5c2	-0.027430419
157	0x3debe3d6	0.11518066
158	0xbe9ca5ac	-0.30595148
159	0x3da31297	0.0796253
160	0xbd7504e7	-0.05981913
161	0xbd440685	-0.04785778
162	0xbde49996	-0.11162107
163	0xbdef6169	-0.116885014
164	0xbe726079	-0.23669614
165	0xbd376ce0	-0.044781566
166	0x3da03022	0.078216806
167	0xbe5cd314	-0.21564895
168	0x3e4b6137	0.19861303
169	0xbe2c53b0	-0.16828799
170	0x3d9599ae	0.07304703
171	0x3c272140	0.0102007985
172	0x3e15ad88	0.14616978
173	0xbe28e8c9	-0.1649505
174	0xbe3b3eca	-0.18285671
175	0xbd2424b5	-0.04007407
176	0x3db363a4	0.08759239
177	0xbdd61aae	-0.104543075
178	0xbcb95335	-0.022622684
179	0xbe0eb9a8	-0.1393801
180	0x3aa14120	0.0012302734
181	0x3e45b7b1	0.19308354
182	0x3c567a6f	0.013090714
183	0x3caab90a	0.020840187
184	0xbdcca812	-0.09992994
185	0xbe318cc5	-0.17338856
186	0xbe051e1b	-0.12999766
187	0x3d9ba198	0.07599181
188	0x3e307e29	0.17235626
189	0x3dade411	0.08490766
190	0x3de9e6ab	0.114209495
191	0xbe833ebc	-0.256338
192	0xbd1384f9	-0.036015484
193	0xbd181d60	-0.03713739
194	0xbd208e45	-0.03919818
195	0xbe0db44c	-0.13838309
196	0xbd25d531	-0.04048652
197	0xbd45d1a6	-0.04829564
198	0xbcc97d18	-0.024595782
199	0x3e5740ee	0.21020862
200	0x3d29e62e	0.041479282
201	0xbe46dc81	-0.19420053
202	0x3e22a375	0.15882666
203	0xbe833848	-0.25628877
204	0x3d31b6a7	0.04338708
205	0x3ce0a24a	0.027421135
206	0xbe3b4df8	-0.18291461
207	0xbd65078c	-0.0559154
208	0x3d30a33b	0.04312442
209	0xbcb9cfa4	-0.022682019
210	0xba92337b	-0.0011154258
211	0xbbaa9558	-0.0052057914
212	0xbddd14ec	-0.10795006
213	0x3dc35d19	0.09539241
214	0xbe17ff9c	-0.14843601
215	0xbdba276f	-0.090895526
216	0x3e019ddf	0.1265788
217	0xbe7c2168	-0.24622118
218	0x3e2845ca	0.16432872
219	0xbe0066fc	-0.12539285
220	0x3b1fcc7d	0.002438336
221	0x3d97fdd2	0.07421459
222	0xbccdad7d	-0.02510714
223	0xbdc91953	-0.09819283
224	0xbbe8c5d3	-0.0071036606
225	0xbe8055fb	-0.25065598
226	0xbe5b8aec	-0.21439713
227	0xbd2264f5	-0.03964706
228	0x3cab774d	0.02093091
229	0xbe4f20f8	-0.2022742
230	0x3dde93c5	0.108680286
231	0xbe812d04	-0.25229657
232	0xbe9eb322	-0.30996042
233	0xbe414cb3	-0.18876915
234	0xbd24dc06	-0.040248893
235	0x3c2490da	0.010044301
236	0x3e0cd7a8	0.13754141
237	0x3c318f3f	0.010837375
238	0x3df514e1	0.11966873
239	0x3d93df53	0.0722033
240	0x3dd2b9f1	0.10289372
241	0xbcb52ff4	-0.022117592
242	0xbe0120cc	-0.12610167
243	0xbd71c731	-0.059027854
244	0x3dff2042	0.124573246
245	0xbde9f9b5	-0.11424581
246	0xbdd2459e	-0.10267185
247	0x3e3c984a	0.18417469
248	0xbdc12847	-0.094315104
249	0x3d5f021b	0.054445367
250	0x3e3489d7	0.17630707
251	0xbde16a9f	-0.110066645
252	0x3dca0292	0.098637715
253	0xbcfcc890	-0.030857354
254	0x3e495fe5	0.19665487
255	0xbebd1b24	-0.3693477

fc2.bias f4 [64]
0	0xbe1494e5	-0.14509924
1	0xbd3285ce	-0.043584637
2	0xbdc98363	-0.09839513
3	0xbe1317ec	-0.14364594
4	0xbd3467c8	-0.044044286
5	0x3d12f511	0.035878245
6	0xbd9ad82b	-0.07560762
7	0x3db0ac3f	0.08626603
8	0xbde317c4	-0.11088517
9	0x3b902b99	0.0043997285
10	0xbdd6619f	-0.104678385
11	0x3c16fae3	0.0092150895
12	0x3d637e04	0.0555401
13	0xbda3acd9	-0.079919524
14	0xbd56922b	-0.05238549
15	0xbd81c693	-0.06336703
16	0xbe03dd24	-0.12877327
17	0x3d612489	0.054966483
18	0xbd38b69c	-0.045096025
19	0x3d3a131f	0.04542839
20	0x3cd39be2	0.025831167
21	0x3d9c9d14	0.07647148
22	0x3dbdc294	0.092656285
23	0xbe041f75	-0.12902625
24	0xbe0dd10e	-0.1384928
25	0x3cb812cf	0.022469906
26	0xbd9def76	-0.07711689
27	0x3bd3c40d	0.00646258
28	0xbdf96f86	-0.121794745
29	0xbdb976f9	-0.09055895
30	0xbdfd2b37	-0.12361758
31	0xbd6d7a0c	-0.05797772
32	0x3d6be765	0.057593722
33	0x3df169c6	0.11787753
34	0xbd46cf8c	-0.048537776
35	0xbdbaf0ff	-0.091279976
36	0x3e385a45	0.18003185
37	0x3d212fc9	0.039352212
38	0x3e19621a	0.14978829
39	0x3cf63523	0.030054634
40	0xbe08c9c4	-0.13358217
41	0xbe0419de	-0.12900493
42	0xbdb00fdf	-0.08596777
43	0xbcbffa4e	-0.023434784
44	0x3da8abf8	0.082359254
45	0xbdfea147	-0.12433105
46	0x3e0de8f7	0.138584
47	0x3d495436	0.049152575
48	0x3d79acaf	0.0609557
49	0xbd073318	-0.03300771
50	0x3d3f8cb3	0.04676504
51	0x3d1b7116	0.037949644
52	0xbd84f746	-0.06492476
53	0x3cb70484	0.02234102
54	0xbd0883ef	-0.033328947
55	0x3d0cbb23	0.034358155
56	0x3ce56ea9	0.028006868
57	0xbd09a6ee	-0.033606462
58	0x3d6820f2	0.056672044
59	0x3e01285f	0.12613057
60	0xbcd48832	-0.02594385
61	0xbdbd20d3	-0.09234776
62	0x3d3b99f7	0.04580113
63	0xbdb45d15	-0.088068165

adv_fc1.weight f4 [64, 64]
0	0x3d3fb10c	0.046799704
1	0xbdc91656	-0.09818713
2	0x3c87cdd0	0.016577631
3	0xbd25cc94	-0.040478304
4	0x3d2ca8ae	0.042153053
5	0x3d959479	0.073037095
6	0xbdfc2a51	-0.12312759
7	0xbbfe10a0	-0.0077534467
8	0x3d84fd5c	0.06493637
9	0xbe1f034a	-0.15528598
10	0x3ebf6bc9	0.3738692
11	0xbdcfc6f3	-0.101453684
12	0xbcc746ce	-0.024325754
13	0x3d3ba614	0.04581268
14	0xbe82786a	-0.25482494
15	0x3ea0c774	0.3140217
16	0x3c8b30ec	0.016991101
17	0xbd5ed7c6	-0.054404996
18	0x3e1c7898	0.15280378
19	0xbe71cd67	-0.23613511
20	0xbe28bb4b	-0.16477697
21	0xbe43b03f	-0.19110201
22	0x3d92ac50	0.07161772
23	0x3ba4fa17	0.005034696
24	0x3e83a6d0	0.25713205
25	0xbdea2a6d	-0.11433873
26	0x3be6c13c	0.0070420783
27	0x3c8b480d	0.01700213
28	0xbcb5d772	-0.022197459
29	0xbe1cfe3f	-0.15331362
30	0xbbe5f9a0	-0.007018283
31	0x3d1562c8	0.03647116
32	0xbe3c4499	-0.18385543
33	0xbe351070	-0.17682052
34	0x3dbe103a	0.09280439
35	0xbde6fadc	-0.112783164
36	0x3d81f000	0.063446045
37	0x3e5bee6e	0.21477672
38	0xbc83aa1f	-0.016072331
39	0xbd0a1bb2	-0.03371782
40	0x3e88db31	0.2672973
41	0x3dea5d30	0.11443555
42	0xbc4c3053	-0.012462693
43	0xbe7a81e5	-0.24463613
44	0xbcca7f81	-0.024719002
45	0x3e1e3b69	0.1545235
46	0xbda05876	-0.078293726
47	0xbe194aee	-0.1496999
48	0x3d7a3f0f	0.061095294
49	0xbcd24d86	-0.025671732
50	0x3d2ceba2	0.042216904
51	0xbe4e14de	-0.20125148
52	0x3d64c363	0.055850398
53	0xbb8950d8	-0.0041905455
54	0xbdc44659	-0.0958373
55	0x3dde285a	0.1084754
56	0x3d0e6674	0.034765676
57	0x3e2ddfca	0.169799
58	0xbe33e4ac	-0.175677
59	0x3e269736	0.1626862
60	0xbce6a4a3	-0.028154677
61	0xbd67eb64	-0.05662097
62	0xbe9f311d	-0.31092158
63	0x3de559e4	0.11198786
64	0xbdbb9e93	-0.09161105
65	0xbe3dbc41	-0.18528844
66	0xbdb137ac	-0.08653197
67	0x3d9823d2	0.07428707
68	0x3df5604e	0.11981259
69	0xbd1d7c05	-0.038448352
70	0xbd02cee1	-0.031935576
71	0x3d54ab77	0.051921334
72	0x3dec56c1	0.115399845
73	0xbd1d34ca	-0.03838042
74	0xbda88586	-0.082285926
75	0xbe52c34c	-0.20582312
76	0x3de752a7	0.112950616
77	0xbdf12dac	-0.11776289
78	0xbdd1d983	-0.10246565
79	0xbde62939	-0.11238331
80	0xbdb1fc50	-0.08690703
81	0x3dc9a868	0.09846574
82	0xbae95f05	-0.0017804807
83	0xbc345fb6	-0.011009147
84	0x3db8299f	0.089923136
85	0xbcc02da4	-0.023459263
86	0x3d56a73b	0.052405577
87	0x3df3f93e	0.119127735
88	0x3e2bb7ef	0.16769384
89	0xbd1dfdc1	-0.038572077
90	0x3e51ed68	0.2050072
91	0xbd7c8e6e	-0.06165927
92	0xbdcf7c13	-0.10131087
93	0xbdd69268	-0.104771435
94	0x3d9a8898	0.075455844
95	0x3de7dd70	0.11321533
96	0xbe6c1a54	-0.23056918
97	0xbc4c372f	-0.012464329
98	0x3eaa5db5	0.33274618
99	0xbe1fe427	-0.15614377
100	0x3e11ef29	0.14251389
101	0x3c17a141	0.0092547545
102	0x3ded3515	0.1158239
103	0x3ca3a2b4	0.019975044
104	0xbe00865d	-0.12551256
105	0x3dee3db6	0.11632864
106	0xbdb9e397	-0.090766124
107	0xbe7db6cb	-0.24776761
108	0x3e36f878	0.17868221
109	0xbdb18d28	-0.086695015
110	0xbe20a5a7	-0.15688191
111	0xbdcc23d5	-0.09967772
112	0xbe440da0	-0.19145823
113	0x3e1e2264	0.15442806
114	0xbe83cb36	-0.25740975
115	0x3dca3f16	0.09875314
116	0x3e1e3136	0.1544846
117	0x3dbef0e9	0.09323294
118	0xbc366156	-0.011131605
119	0xbd5d48a0	-0.05402434
120	0x3e4ad552	0.19807938
121	0xbee83f9f	-0.4536104
122	0xbe7eb673	-0.24874286
123	0xbe384b8e	-0.17997572
124	0xbc82a8fa	-0.015949715
125	0x3d8e2958	0.069414794
126	0xbe604059	-0.21899547
127	0xbdfc6fc1	-0.12326003
128	0x3d37a923	0.044839036
129	0xbd86b680	-0.06577778
130	0xbe772f21	-0.24139072
131	0xbe25c6ec	-0.16189164
132	0xbddf9c3e	-0.10918473
133	0xbd7aa0a6	-0.061188363
134	0xbd97bc0c	-0.07408914
135	0xbd1ad3c1	-0.0377996
136	0xbd09a732	-0.033606716
137	0x3e07eeec	0.13274735
138	0xbe1298b5	-0.14316066
139	0x3e0ec810	0.13943505
140	0x3dccfede	0.100095496
141	0xbe43b888	-0.19113362
142	0x3c92ac79	0.017904507
143	0xbe2e2b89	-0.17008795
144	0xbdaf9d3b	-0.08574911
145	0xbe937ae5	-0.288047
146	0x3d535af4	0.05160041
147	0x3d87a659	0.06623525
148	0x3e22fd13	0.15916853
149	0xbdb3da15	-0.0878183
150	0xbdcaf23e	-0.09909485
151	0x3ddb1174	0.10696688
152	0xbe6a92fe	-0.22907636
153	0x3e9f010d	0.3105549
154	0x3dafc18a	0.085818365
155	0xbdf127d4	-0.11775175
156	0xbcb8d3a8	-0.022561863
157	0xbdf95c40	-0.121757984
158	0x3b8e3605	0.0043399357
159	0x3de274dd	0.11057446
160	0xbc76657a	-0.015038842
161	0xbcaa121f	-0.020760594
162	0xba921a8c	-0.0011146828
163	0xbdf3c877	-0.1190347
164	0xbd38e3a5	-0.045138974
165	0xbda506e1	-0.08057953
166	0x3d6fe7df	0.05857074
167	0xbe525f8a	-0.20544258
168	0x3c93b041	0.01802838
169	0x3c77a929	0.0151160145
170	0x3dc0e22b	0.09418138
171	0xbe3010c5	-0.17193897
172	0xbcf228bb	-0.029560437
173	0x3e55af06	0.20867547
174	0xbe2489f3	-0.16068248
175	0xbd85dcde	-0.06536268
176	0x3dc0a6aa	0.09406789
177	0x3e1767ef	0.14785741
178	0x3dda8283	0.106694244
179	0x3cac880b	0.021060964
180	0xbd223c33	-0.03960819
181	0x3d97f3c5	0.07419542
182	0xbdb3ec28	-0.087852776
183	0xbe34a50e	-0.17641088
184	0xbce4c884	-0.027927645
185	0x3e8937df	0.2680044
186	0x3de75db1	0.11297167
187	0x3e137b04	0.14402395
188	0x3d9a7e6c	0.07543644
189	0xbd272314	-0.040804937
190	0x3d9f1aea	0.07768805
191	0xbdcb5520	-0.09928346
192	0x3dba28aa	0.09089787
193	0xbca62f03	-0.020286089
194	0xbddcb910	-0.10777485
195	0xbd91ca09	-0.07118613
196	0x3d245058	0.040115684
197	0xbe37af89	-0.17938055
198	0xbe5bd9ff	-0.21469878
199	0xbcbeb113	-0.023277795
200	0x3d133129	0.035935555
201	0xbd914109	-0.070924826
202	0xbe0cb030	-0.13739085
203	0xbe1014ff	-0.1407051
204	0xbe2b9dd0	-0.1675942
205	0xb8ea179d	-0.00011162388
206	0x3d9327d7	0.07185333
207	0x3db3092f	0.08741986
208	0xbd9533e9	-0.07285292
209	0x3d868524	0.06568363
210	0xbdc48b97	-0.09596937
211	0x3ceec9b9	0.029148923
212	0x3b8125db	0.0039412803
213	0xbe00975f	-0.12557743
214	0xbde88d4f	-0.113550775
215	0xbd87ae4e	-0.06625043
216	0x3b203b42	0.0024449383
217	0x3dd0be2b	0.10192522
218	0x3d84ad59	0.06478376
219	0x3e12ecda	0.14348164
220	0xbb927c17	-0.004470359
221	0xbd84b4b0	-0.06479776
222	0x3dffee48	0.124966204
223	0x3dd25c46	0.10271506
224	0xbe139635	-0.14412768
225	0xbe32bd5d	-0.17455049
226	0x3da67ebe	0.08129643
227	0x3de7f468	0.11325914
228	0xbe0c4682	-0.13698772
229	0x3bd60761	0.0065316414
230	0x3d951096	0.07278554
231	0x3dc1b5a9	0.09458477
232	0x3c6b5822	0.014364274
233	0xbd017e68	-0.03161469
234	0xbe136c2e	-0.14396736
235	0xbda49d81	-0.08037854
236	0xbdff6cd9	-0.12471933
237	0x3dd84a15	0.10561005
238	0xbe063cb0	-0.13109088
239	0xbd61bfca	-0.055114545
240	0x3df1869b	0.11793252
241	0x3dee13d4	0.11624876
242	0x3d751726	0.05983653
243	0xbd5d181c	-0.05397807
244	0x3cc58dd5	0.024115482
245	0xbd324816	-0.043525778
246	0x3d157086	0.036484264
247	0x3c3acfa0	0.011402041
248	0xbe0971de	-0.13422343
249	0xbe194732	-0.14968565
250	0x3d650223	0.05591024
251	0x3c77fc57	0.015135846
252	0xbdc5aa26	-0.09651594
253	0xbceb0cf0	-0.028692693
254	0xbdc9c645	-0.0985227
255	0xba8699df	-0.0010269246

adv_fc1.bias f4 [64]
0	0xbdfb0def	-0.12258517
1	0x3acf1cef	0.001580147
2	0x3daaac80	0.08333683
3	0xbdbe2c70	-0.092858195
4	0x3de97cd5	0.11400763
5	0x3e0953f7	0.13410936
6	0xbc298e21	-0.010348828
7	0x3aa3e4e1	0.0012504124
8	0xbe3fe375	-0.18739112
9	0xbd2790eb	-0.04090969
10	0xbddccb2e	-0.10780941
11	0x3d37d55a	0.044881202
12	0x3e13f087	0.14447223
13	0xbd37e9c2	-0.044900663
14	0xbc836da3	-0.01604349
15	0xbd93b0cf	-0.07211458
16	0xbde12aaf	-0.109944694
17	0xbdfce6b5	-0.123486914
18	0xbdc7883d	-0.09742782
19	0xbdb92ee6	-0.09042148
20	0xbcbfbd46	-0.023405682
21	0x3e07f0a9	0.13275398
22	0xbd1563e7	-0.036472227
23	0x3e038015	0.12841828
24	0x3e1d7d77	0.15379892
25	0xbd967a7e	-0.07347582
26	0x3df6045b	0.120125495
27	0x3bc6af35	0.006063367
28	0xbd40c885	-0.04706623
29	0x3d5ccd6f	0.053906854
30	0x3d4b9dda	0.049711086
31	0x3da94a06	0.08266072
32	0x3da89e71	0.08233345
33	0x3dfb9529	0.122843094
34	0xbe19ef85	-0.15032776
35	0x3d059e0c	0.03262143
36	0xbd7dd168	-0.061967283
37	0x3ca30966	0.019901942
38	0xbe2a92f0	-0.16657615
39	0x3d909315	0.07059304
40	0xbc734446	-0.014847821
41	0xbdcc6f63	-0.09982183
42	0xbc5dd8a7	-0.0135404235
43	0xbcc0ad05	-0.023520002
44	0xbe1e02e7	-0.15430795
45	0x3e0409b7	0.12894331
46	0x3df23a36	0.11827509
47	0x3dc8c9e9	0.09804136
48	0x3d26332b	0.04057614
49	0xbd0b0025	-0.033935685
50	0xbd1746c1	-0.03693271
51	0x3cd69ac6	0.026196849
52	0x3a745557	0.0009320578
53	0xbd230e09	-0.039808307
54	0x3d294d21	0.04133332
55	0x3d222d43	0.039593946
56	0xbd4e2c33	-0.05033512
57	0xbdb3a160	-0.08771014
58	0xbcc1f0ea	-0.023674447
59	0xbe1d9a4a	-0.15390888
60	0xbd7a84b7	-0.061161723
61	0xbe176a1d	-0.14786573
62	0x3dc091e1	0.09402824
63	0x3dc50671	0.09620369

val_fc1.weight f4 [64, 64]
0	0xbd181147	-0.037125852
1	0xbafb6376	-0.0019179422
2	0xbd3e72af	-0.04649609
3	0xbe201990	-0.15634751
4	0xbd225236	-0.039629184
5	0xbe59259d	-0.21205755
6	0xbddbd455	-0.107338585
7	0xbc493b5b	-0.012282218
8	0x3e114176	0.14185128
9	0x3e0758ca	0.13217464
10	0xbc39ea8e	-0.011347426
11	0x3df446d1	0.1192757
12	0xbba4cf78	-0.005029615
13	0xbc97cbf5	-0.018529871
14	0x3e00eeb7	0.12591062
15	0xbdcd1066	-0.100128934
16	0x3c4f8f4b	0.012668441
17	0xbd2f7e55	-0.04284509
18	0x3d9c8de1	0.07644249
19	0xbea0d92a	-0.31415683
20	0xbe13ddb5	-0.14440043
21	0xbdfda716	-0.12385385
22	0x3ebc8151	0.3681741
23	0x3b3dbee3	0.0028952889
24	0x3da26a56	0.07930438
25	0x3dcaa954	0.09895578
26	0x3d3d0ac8	0.04615286
27	0x3e050490	0.12990022
28	0xbd9ee318	-0.077581584
29	0xbe131beb	-0.14366119
30	0x3bd6a940	0.006550938
31	0xbe0e2c90	-0.13884187
32	0x3df976ea	0.12180884
33	0xbd8defce	-0.06930505
34	0x3e1d50fd	0.15362926
35	0xbe6647ca	-0.22488323
36	0xbde2059f	-0.110362284
37	0xbc11a5d4	-0.008889634
38	0x3e6687b9	0.22512712
39	0x3e1cfd2e	0.15330955
40	0x3c063f02	0.008193733
41	0x3e439a94	0.19101936
42	0x3e2b6747	0.16738616
43	0xbdbab58c	-0.091166586
44	0x3e3d2d78	0.18474376
45	0x3cda68ec	0.026661359
46	0x3d1be97e	0.038064472
47	0xbe2e72cf	-0.17035984
48	0x3d8921b9	0.06695885
49	0x3e1459af	0.14487337
50	0xbd9d2b82	-0.07674314
51	0xbe0efbbb	-0.13963215
52	0xbc9dd6ab	-0.0192674
53	0x3ba465a4	0.0050169993
54	0x3dae0b30	0.084982276
55	0xbe62a03e	-0.2213144
56	0x3c245519	0.0100300545
57	0x3bbfaa86	0.0058491854
58	0x3e34e95d	0.17667146
59	0xbd5269e3	-0.051370513
60	0xbe8f43c4	-0.2798139
61	0x3c1a6917	0.009424469
62	0x3d857d8b	0.06518086
63	0xbe1d85cb	-0.15383069
64	0xbcc08b0c	-0.023503803
65	0x3de2c07c	0.1107187
66	0x3da39140	0.079866886
67	0xbd43a1cb	-0.04776172
68	0x3d9dc643	0.07703831
69	0xbe449980	-0.1919918
70	0xbdd32447	-0.10309654
71	0xbdfb4b99	-0.122702785
72	0xbd3141db	-0.043275695
73	0xbda06266	-0.07831268
74	0xbd0b1cbb	-0.033962946
75	0xbd57dc9c	-0.052700624
76	0x3e4fb6ce	0.20284578
77	0xbd3b8b98	-0.045787424
78	0x3c8b4ba3	0.01700384
79	0xbe10e646	-0.14150342
80	0x3c2bcfe0	0.010486573
81	0xbe0ed38c	-0.13947886
82	0xbd33dc46	-0.04391124
83	0x3d8c5a27	0.06853133
84	0x3dd4376e	0.10362135
85	0x3dee75ef	0.11643588
86	0x3d1ac220	0.03778279
87	0xbe024d9d	-0.1272492
88	0x3d924d31	0.07143629
89	0xbdd070cd	-0.10177765
90	0x3dfb9ee1	0.12286163
91	0xbe472ba0	-0.19450235
92	0xbcf231aa	-0.029564697
93	0xbdeddf60	-0.11614871
94	0x3dbfd45a	0.09366675
95	0xbdbde6df	-0.09272551
96	0xbda13f54	-0.07873407
97	0xbe5b00b3	-0.21386985
98	0x3d8f6a8a	0.070027426
99	0xbd4cb350	-0.049975693
100	0x3d4cbcb0	0.049984634
101	0x3bcb75ce	0.006209112
102	0xbdac3194	-0.08407894
103	0xbe086a18	-0.13321722
104	0xbd2270fc	-0.03965853
105	0x3e9204bb	0.28519234
106	0x3d81930c	0.06326875
107	0x3db601c5	0.08887056
108	0x3c8f3782	0.017482523
109	0x3e1340e2	0.1438022
110	0x3c250c3b	0.010073717
111	0x3de63648	0.11240822
112	0x3e20843b	0.15675442
113	0xbda1a1eb	-0.078922115
114	0x3d0f894f	0.035043057
115	0xbd5cd513	-0.05391414
116	0xbdf44f4c	-0.11929187
117	0x3d151e4b	0.036405843
118	0xbd306a50	-0.043070138
119	0xbdf48f5a	-0.11941405
120	0x3ccd4ef3	0.02506206
121	0xbdbb64bb	-0.09150072
122	0x3ccad82b	0.02476128
123	0x3bda84a1	0.0066686426
124	0x3db8bd8f	0.090205304
125	0x3dad1c60	0.08452678
126	0xbe5da2d8	-0.21644151
127	0x3dd2c69b	0.10291787
128	0xbde6736c	-0.11252484
129	0x3ca555d4	0.020182528
130	0x3e396668	0.18105471
131	0xbde5a43c	-0.11212966
132	0xbde82f96	-0.11337201
133	0xbe1e2195	-0.15442498
134	0x3d443b09	0.047907863
135	0x3dd9c896	0.10633962
136	0xbd6acfe8	-0.05732718
137	0xbd8be0f0	-0.06830013
138	0x3ce63d50	0.028105408
139	0xbd16b72c	-0.03679578
140	0x3dd302ae	0.103032455
141	0xbe7295d1	-0.23689963
142	0x3e2b7563	0.16743998
143	0xbd85c71b	-0.06532117
144	0x3d1f4058	0.038879722
145	0xbe8afe1b	-0.27146992
146	0x3e08c878	0.13357723
147	0x3e4512e8	0.19245493
148	0xbd2bc0f9	-0.04193208
149	0xb9495cce	-0.00019203426
150	0x3e18fac4	0.1493941
151	0xbd47f95d	-0.048821796
152	0xbd0d43f3	-0.03448863
153	0x3ce2756a	0.027643878
154	0x3e67cb48	0.2263614
155	0x3c6c5857	0.014425359
156	0xbd1c6fe8	-0.03819266
157	0xbd5ea615	-0.054357607
158	0x3dcd7cd8	0.10033578
159	0xbe0f04d5	-0.13966687
160	0xbe1cb5c4	-0.15303713
161	0xbde15702	-0.110029235
162	0xbcb4498a	-0.022007722
163	0x3db33fa3	0.08752372
164	0xbc6f6a95	-0.0146128135
165	0xbd8c5aaa	-0.0685323
166	0x3cb5077c	0.022098295
167	0xbe1bfbda	-0.15232792
168	0x3a0a1b99	0.00052683946
169	0xbdc27f24	-0.094969064
170	0xbdae9e2b	-0.08526262
171	0xbe58c5b9	-0.21169175
172	0x3db77748	0.08958298
173	0x3dab6e57	0.08370655
174	0x3dc8787c	0.097886056
175	0xbac15cea	-0.0014752422
176	0x3c5b24e3	0.013375494
177	0xbd66a65c	-0.056310996
178	0xbe2fe894	-0.17178565
179	0x3e0cceaa	0.13750711
180	0x3d97daf9	0.074148126
181	0xbd4df33a	-0.050280787
182	0xbd02b0c4	-0.031906858
183	0xbc53aa16	-0.01291897
184	0x3d55734a	0.0521119
185	0x3e15cc93	0.1462882
186	0x3c321668	0.0108696
187	0xbecf27bd	-0.40460005
188	0x3e2f370b	0.17110841
189	0xbdca57cd	-0.09880028
190	0x3d9cca39	0.076557584
191	0xbd8ee795	-0.069777645
192	0x3daa3216	0.083103344
193	0xbdde56ec	-0.10856423
194	0x3e04f6fc	0.12984842
195	0x3d792b4b	0.060832303
196	0x3d486cf0	0.048932016
197	0xbd9e7d4b	-0.077387415
198	0x3e2687b3	0.16262703
199	0xbe3d6a5b	-0.18497603
200	0x3c52e29b	0.01287141
201	0xbcfd4ebe	-0.030921336
202	0x3d6e7817	0.058219995
203	0xbeeee024	-0.4665538
204	0x3b93db86	0.004512253
205	0xbc43f867	-0.011961079
206	0xbd1cbd06	-0.038266204
207	0xbe841851	-0.25799802
208	0x3c46d133	0.012134838
209	0x3dd0c47e	0.10193728
210	0xbd1d490b	-0.038399737
211	0x3c9784e7	0.01849599
212	0xbd25bd95	-0.040464003
213	0xbc2199c3	-0.00986332
214	0xbe355c3d	-0.17710967
215	0x3dc8fde8	0.09814054
216	0x3d9b261c	0.07575628
217	0xbdd2799e	-0.10277103
218	0xbe1bdfb3	-0.15222053
219	0xbe944ff9	-0.28967264
220	0xbcd59d5e	-0.026076015
221	0xbddb0de5	-0.106960095
222	0xbb148140	-0.0022660047
223	0xbdd47329	-0.103735276
224	0x3dc62c64	0.096764356
225	0x3c136d91	0.008998291
226	0xbe11bad3	-0.14231424
227	0x3dcfa60a	0.10139091
228	0x3d27ed03	0.040997516
229	0x3dadc32b	0.08484491
230	0x3d595945	0.05306365
231	0x3dfe940f	0.12430584
232	0x3c7ed4ec	0.015553694
233	0xbdbf75cc	-0.0934864
234	0x3d01183c	0.031517252
235	0x3e197133	0.14984588
236	0xbe1f2121	-0.15539981
237	0xbba2d6dd	-0.0049694614
238	0xbca47370	-0.020074576
239	0xbdc65f94	-0.09686199
240	0x3d9489f6	0.072528765
241	0x3db9143f	0.09037065
242	0xbc90d70e	-0.017680671
243	0x3cc02e27	0.023459507
244	0xbdf10c2f	-0.11769902
245	0xbd70e7b2	-0.058814712
246	0xbb9fd331	-0.004877471
247	0xbc3e90e4	-0.011631224
248	0xbd9fb795	-0.07798687
249	0xbde5cacf	-0.11220323
250	0xbdc68b50	-0.096945405
251	0x3dcd0626	0.10010938
252	0xbe896a03	-0.26838693
253	0xbdc6e1d3	-0.09711041
254	0xbd17ec5b	-0.03709064
255	0xbdf76fca	-0.12081869

val_fc1.bias f4 [64]
0	0x3c238148	0.0099795535
1	0xbe3414e3	-0.17586093
2	0x3da66d45	0.0812631
3	0xbe08748d	-0.1332571
4	0x3ea3c6f1	0.31987718
5	0x3d2cdf3c	0.04220508
6	0x3eac2a23	0.33625898
7	0xbd86b638	-0.06577724
8	0x3def32af	0.11679589
9	0xbe296e58	-0.16545999
10	0x3df45bf8	0.11931604
11	0xbc438eab	-0.01193587
12	0xbdf130c5	-0.1177688
13	0x3baa9c0f	0.005206592
14	0x3ea9d269	0.33168343
15	0xbe17301e	-0.14764449
16	0x3eb3cf06	0.35118884
17	0xbdd3bb92	-0.103385106
18	0xbe184ee9	-0.14873852
19	0x3d478591	0.048711363
20	0xbd3881ff	-0.04504585
21	0x3e98c652	0.29838806
22	0xbdf545a3	-0.11976173
23	0x3dca42c8	0.09876019
24	0xbd91cfe4	-0.0711973
25	0xbe296f5f	-0.16546391
26	0x3b2a2549	0.0025962165
27	0x3d0a975f	0.033835765
28	0x3c4a4962	0.012346597
29	0xbd27e0d7	-0.04098591
30	0xbd81a76a	-0.0633076
31	0x3dcb2a0d	0.0992013
32	0x3bf89c3c	0.007586984
33	0x3e0d2e78	0.13787258
34	0xbcd7de24	-0.026351042
35	0xbd9bbb7e	-0.07604121
36	0xbe1682eb	-0.14698379
37	0x3e9840de	0.2973699
38	0xbe0718b6	-0.1319302
39	0xbd88c2b0	-0.06677759
40	0xbe274614	-0.16335326
41	0x3d452f8c	0.048141047
42	0x3da52728	0.08064109
43	0x3d338a6f	0.043833192
44	0x3e28aaf6	0.16471466
45	0xbe13b784	-0.14425474
46	0xbc8cf7e4	-0.017208047
47	0xbd4089e1	-0.04700649
48	0xbe0acd2e	-0.13554832
49	0x3e8facf6	0.28061646
50	0x3e290128	0.16504347
51	0xbe29daf3	-0.16587429
52	0x3e757308	0.23969662
53	0xbc2e0484	-0.010621194
54	0xbe180612	-0.14846066
55	0xbdcf35e7	-0.10117703
56	0x3e074c60	0.13212729
57	0x3e232696	0.15932688
58	0xbe039849	-0.12851061
59	0x3e834158	0.2563579
60	0xbcc0a499	-0.023515986
61	0x3e83df47	0.25756285
62	0xbe23ffe3	-0.16015582
63	0x3e868a60	0.26277447

val_fc2.weight f4 [1, 64]
0	0xbea636cb	-0.3246368
1	0xbd1442d1	-0.036196534
2	0x3e868e9f	0.26280686
3	0xbd54b0a4	-0.05192627
4	0x3e3c529a	0.18390885
5	0x3e11e4c5	0.14247425
6	0x3e67431c	0.22584194
7	0xbd7ace49	-0.061231885
8	0x3e21b394	0.1579116
9	0xbd28e25b	-0.041231494
10	0x3e0751bd	0.13214774
11	0xbe34f208	-0.17670453
12	0xbe1ca4a4	-0.1529718
13	0x3e93af0d	0.2884449
14	0x3e61e45d	0.2205977
15	0xbc2e96d7	-0.01065608
16	0x3e8185ad	0.252973
17	0xbcc10f92	-0.023566995
18	0xbab35735	-0.0013682606
19	0x3edaa1d2	0.42701584
20	0x3cdecd76	0.02719758
21	0x3e14202d	0.14465399
22	0x3c420e23	0.011844191
23	0x3e4c0edb	0.19927542
24	0xbd94cb40	-0.07265329
25	0xbd3d166e	-0.04616397
26	0xbe54e2be	-0.2078962
27	0x3ea47ebc	0.3212794
28	0xbdefea84	-0.11714652
29	0xbd528c8d	-0.05140357
30	0x3d04e3f8	0.03244397
31	0x3e3484ad	0.17628737
32	0xbe0bc0eb	-0.13647811
33	0x3e3ecffc	0.18634027
34	0x3d372e59	0.044721935
35	0xbca2bf7a	-0.019866694
36	0x3dc4cf60	0.09609866
37	0x3e314ea6	0.17315158
38	0xbdb002da	-0.08594294
39	0xbe6ac2c4	-0.2292586
40	0xbec6b367	-0.38808748
41	0x3e0ff253	0.14057283
42	0x3d776fd5	0.060409386
43	0xbd25da43	-0.040491354
44	0x3dbd9dee	0.09258638
45	0x3d8dbb93	0.069205426
46	0x3ec17eb4	0.3779198
47	0xbe89edbf	-0.26939198
48	0xbe59268d	-0.21206112
49	0x3e23654b	0.15956609
50	0x3da9691b	0.082720004
51	0x3de2e859	0.11079473
52	0x3e159ef6	0.1461142
53	0xbe9e70df	-0.3094549
54	0xbc9f2d90	-0.019430906
55	0x3d31d22f	0.043413337
56	0x3de1c47a	0.11023803
57	0x3e0f9ff0	0.14025855
58	0xbe5f6ca7	-0.21818791
59	0x3e6e3eea	0.23266187
60	0xbe29c5d8	-0.16579378
61	0x3de9b089	0.114106245
62	0xbe4c7edf	-0.19970272
63	0x3e2cfaeb	0.16892593

adv_fc2.weight f4 [4, 64]
0	0x3e3c739b	0.18403475
1	0x3e9f33b6	0.3109414
2	0x3d8ed3bb	0.06973978
3	0x3dfbbaeb	0.12291511
4	0xbd1db8e0	-0.03850639
5	0xbd6fff43	-0.058593046
6	0x3c22b74d	0.009931398
7	0x3df5c84e	0.12001096
8	0x3e1b9694	0.1519416
9	0xbc4f1554	-0.012639362
10	0xbe0a8c8d	-0.13530178
11	0x3def52b9	0.116857
12	0x3e3fb3e9	0.18720974
13	0xbe577317	-0.21039997
14	0x3d708a2c	0.05872552
15	0xbe36e4fa	-0.17860785
16	0x3d1276eb	0.03575794
17	0xbdd62460	-0.10456157
18	0xbbceec9f	-0.0063148285
19	0xbd1eaac4	-0.038737074
20	0x3c83f01e	0.016105708
21	0xbe27f23e	-0.16401002
22	0x3bedb99b	0.007254792
23	0x3e08b3a5	0.13349779
24	0x3e56e788	0.2098676
25	0xbd56e42c	-0.052463695
26	0x3e125677	0.14290796
27	0x3c650472	0.013978111
28	0xbc830f0f	-0.015998391
29	0x3b77dc59	0.0037820546
30	0x3d4b6417	0.049656
31	0x3c66e3c0	0.014092386
32	0x3e0e430a	0.13892761
33	0xbd7f96d7	-0.06239971
34	0x3e416d58	0.18889368
35	0x3e073583	0.13204007
36	0x3dd88a9a	0.10573311
37	0xbe0ca986	-0.13736543
38	0x3e1d41dc	0.15357155
39	0x3db2a532	0.08722915
40	0x3d5b4409	0.05353168
41	0x3e0c9a0f	0.13730644
42	0x3e449e18	0.19200933
43	0x3dfd02bb	0.123540364
44	0xbe0092e7	-0.12556039
45	0x3e29965c	0.16561264
46	0xbe7560d7	-0.23962723
47	0xbe8f6c08	-0.2801211
48	0x3d97a9eb	0.07405456
49	0xbd4169fa	-0.047220208
50	0x3dd576c3	0.104230426
51	0xbc74ae12	-0.01493408
52	0x3dc22ae3	0.09480836
53	0xbd4e1c04	-0.050319687
54	0x3e0d1b19	0.13779868
55	0x3da609aa	0.08107312
56	0x3d8606c8	0.06544262
57	0x3ed456a7	0.4147236
58	0x3e3684f7	0.1782416
59	0xbe761e39	-0.24034967
60	0xbe0c8d78	-0.13725841
61	0x3d0582b9	0.03259537
62	0x3d9ac7d8	0.075576484
63	0x3dd5e938	0.104448736
64	0x3eb3ad94	0.35093367
65	0x3e6adeb3	0.22936516
66	0xbd0a5614	-0.033773497
67	0x3ded8f0d	0.115995504
68	0x3d3a853c	0.04553722
69	0xbd75a060	-0.0599674
70	0x3d0c7f1c	0.03430091
71	0x3ca757af	0.020427553
72	0x3e1156da	0.14193287
73	0xbdbdc665	-0.092663564
74	0x3e7f6b06	0.2494317
75	0xbd1b9fe9	-0.0379943
76	0x3e546c7b	0.20744507
77	0x3e1bada5	0.15202959
78	0xbc98a58b	-0.018633625
79	0xbdc369c6	-0.09541659
80	0xbe4ade7f	-0.19811438
81	0x3ee03acf	0.43794867
82	0xbd2c37a4	-0.04204525
83	0x3dc09ac8	0.09404522
84	0xbe2ab601	-0.16670991
85	0x3d5eba62	0.054376967
86	0x3ebaa67b	0.3645514
87	0xbdc8d926	-0.09807043
88	0x3cee3fd0	0.029083163
89	0xbe6d1c22	-0.23155263
90	0xbd5adff4	-0.053436235
91	0xbe702fc9	-0.23455729
92	0xbda0e649	-0.078564234
93	0x3de532d6	0.11191337
94	0x3e8bb778	0.27288413
95	0x3e154831	0.1457832
96	0x3d172d3a	0.036908366
97	0xbdc75113	-0.097322606
98	0x3ddcba5f	0.10777735
99	0x3ddddfbc	0.108336896
100	0x3e28b3ea	0.16474882
101	0x3ea0330a	0.3128894
102	0xbd5399d5	-0.051660378
103	0x3e58af1c	0.21160549
104	0x3de0dca0	0.10979581
105	0x3e81dacb	0.25362238
106	0xba2a4bdb	-0.00064962887
107	0x3df68d75	0.120386995
108	0x3d768aef	0.06019109
109	0x3e61df30	0.22057796
110	0x3e06dba1	0.1316972
111	0x3d9113bb	0.070838414
112	0x3c7f5700	0.015584707
113	0x3d553152	0.05204899
114	0x3e886626	0.26640433
115	0x3e89a5d2	0.26884323
116	0x3e22c590	0.15895677
117	0x3d15a096	0.0365301
118	0x3c85c1bf	0.016327737
119	0x3e06ec6a	0.13176122
120	0xbe66caf7	-0.22538362
121	0xbdbba106	-0.09161572
122	0x3db351a0	0.08755803
123	0xbe2f6e4b	-0.17131917
124	0xbd61ed47	-0.055157926
125	0x3d20f149	0.039292607
126	0x3d556c69	0.05210534
127	0x3dc17535	0.094461836
128	0xbe932911	-0.2874227
129	0xbe2bf08e	-0.16790983
130	0x3df3118b	0.118685804
131	0x3b99ce3a	0.0046937736
132	0x3e4c297d	0.19937702
133	0x3e2e3212	0.17011288
134	0x3df1ada8	0.118007004
135	0xbe86b784	-0.26311886
136	0xbdefd88b	-0.11711224
137	0xbdbc3ace	-0.091909036
138	0x3e6a9473	0.22908191
139	0x3d78212b	0.060578506
140	0x3dc48779	0.09596152
141	0x3e3bc479	0.18336667
142	0x3e5faf1d	0.21844144
143	0xbea16aa6	-0.3152668
144	0xbe29b31c	-0.16572231
145	0xbd6e2b72	-0.0581469
146	0x3d576da6	0.052594803
147	0x3dd781b0	0.10522783
148	0x3dd7c5da	0.10535784
149	0x3dd98e53	0.10622849
150	0x3d7142d8	0.058901638
151	0x3dfeda63	0.12443998
152	0x3de20b06	0.11037259
153	0x3dc51dca	0.096248224
154	0x3dc79cfc	0.09746739
155	0x3d44037c	0.047854885
156	0xbc1eafc2	-0.009685459
157	0xbd70b1b2	-0.058763213
158	0xbda06849	-0.07832391
159	0xbeb41042	-0.35168654
160	0x3c25d877	0.01012241
161	0x3e3b2f1a	0.18279687
162	0x3bf94291	0.0076068123
163	0xbed91583	-0.42399225
164	0xbddcf3c3	-0.10788681
165	0xbdb4ddaa	-0.088313416
166	0xbd7f8e8d	-0.062391806
167	0x3cfc6fcf	0.030815033
168	0x3e0f49f4	0.13993055
169	0xbe589f14	-0.21154433
170	0xbd367881	-0.044548515
171	0x3ee1720e	0.4403233
172	0xbc435496	-0.011922022
173	0x3df2d29a	0.11856575
174	0x3e642b06	0.22282037
175	0x3da80ef3	0.08205976
176	0xbc715592	-0.014729874
177	0x3e388ccc	0.1802246
178	0x3ec0af64	0.37633812
179	0x3c19a6d6	0.009378156
180	0xbe8acbbb	-0.2710856
181	0x3da9aaad	0.08284507
182	0xbc76e935	-0.015070249
183	0x3e15c630	0.14626384
184	0x3e2d6281	0.16932108
185	0x3e9112b3	0.2833458
186	0x3caa7603	0.020808225
187	0x3e2793f3	0.16365032
188	0xbe1526d2	-0.1456559
189	0xbd4dc2f4	-0.05023475
190	0xbde6d39e	-0.112708315
191	0x3df1f1f5	0.11813728
192	0x3ede640f	0.43435714
193	0xbe6c81c6	-0.2309638
194	0xbe1b10c2	-0.15143111
195	0x3cf215be	0.029551383
196	0x3da9d586	0.082926795
197	0x3e1b54d8	0.15169084
198	0x3e330c5a	0.1748518
199	0x3d7aa5dd	0.061193336
200	0x3df15e5c	0.11785576
201	0x3cf1de44	0.02952493
202	0x3de36c69	0.11104662
203	0xbd171258	-0.03688273
204	0x3e31e7cf	0.17373584
205	0xbc4a8dee	-0.01236294
206	0xbe7584be	-0.23976418
207	0x3e25a453	0.16175966
208	0xbc94eecc	-0.018180273
209	0xbe2ff180	-0.17181969
210	0xbc3726d1	-0.011178688
211	0xbebb2add	-0.3655614
212	0xbd6f5937	-0.05843469
213	0x3e8ecd35	0.27890936
214	0xbe07dd71	-0.13268067
215	0xbdefb707	-0.117048316
216	0x3df3d678	0.11906141
217	0x3c365001	0.011127473
218	0x3de84399	0.11341018
219	0x3d7068f9	0.05869386
220	0xbe32f21a	-0.17475167
221	0x3dd0b57e	0.10190867
222	0x3ca21eb5	0.019790033
223	0x3e8e4ed4	0.27794516
224	0x3de4a1ce	0.11163674
225	0xbbea3c5e	-0.0071483096
226	0xbdea9d87	-0.11455827
227	0x3e14d696	0.14534983
228	0x3e13fb16	0.1445125
229	0x3e90d988	0.28290963
230	0x3c5eb189	0.013592132
231	0x3d5cebac	0.05393569
232	0xbdfa45c8	-0.12220341
233	0x3defafd4	0.117034584
234	0xbdf01039	-0.11721844
235	0xbea68f02	-0.3253098
236	0xbd236622	-0.039892323
237	0xbccb35cd	-0.024805928
238	0x3e02e6c2	0.1278334
239	0x3e86317a	0.26209623
240	0xbe40ecb7	-0.188403
241	0xbda30632	-0.07960166
242	0xbeb98b06	-0.3623888
243	0x3eb24bf4	0.34823573
244	0xbd96a21f	-0.07355141
245	0xbda9508a	-0.08267315
246	0x3e242015	0.16027863
247	0xbe023e32	-0.12719038
248	0x3cae4ef0	0.021277875
249	0xbe8378a1	-0.2567797
250	0x3e5c4493	0.21510534
251	0xbcc9be58	-0.024626896
252	0x3eb01952	0.34394318
253	0xbc13691b	-0.008997227
254	0x3dbb901b	0.09158345
255	0x3b9362d0	0.0044978634

adv_fc2.bias f4 [4]
0	0x3e47690b	0.19473664
1	0x3db96c3a	0.09053846
2	0x3bb6a11d	0.0055734054
3	0x3da57e9d	0.0808079
