checkpointDuelingTest_5.pth (torch_old, 62535 bytes, 11 tensors)

fc1.weight f4 [64, 37]
-0.049745787 -0.18128435 0.059962478 0.12694544 0.36740777 -0.0103327455 -0.079503246 -0.15221386
0.18470672 0.58137506 -0.06401531 0.072192706 0.083937116 -0.049022615 -0.09605946 0.2254987
-0.0019421099 -0.14220141 -0.007921814 -0.13780679 0.20511566 -0.022968626 -0.0971504 0.08589596
-0.08838828 0.23501603 0.017480075 -0.026514655 -0.04530794 -0.05729528 0.13341966 -0.103645355
0.06645279 0.13624503 0.6366082 0.048288874 0.0030607865 -0.081947275 0.04470676 -0.029670032
0.07927885 0.11234928 -0.3384923 -0.11380296 0.036826197 0.31269068 0.28890085 -0.114430964
-0.0838206 -0.21957225 0.18523535 -0.058833662 -0.036701612 -0.24481715 -0.084568545 -0.057747237
-0.16046727 0.013366248 -0.07759872 0.25393778 0.03825362 -0.00011075652 0.08945625 -0.061800167
-0.013054161 -0.53651404 0.18734 -0.071081325 -0.00982927 -0.122720614 -0.10762284 -0.37634107
-0.07320834 -0.09448809 -0.110743515 -0.2813659 0.043523964 0.3025589 0.07642915 0.21576503
-0.1408694 -0.089324325 -0.33940247 -0.17031857 -0.08498258 -0.04843975 -0.036010444 0.08389127
0.016041018 0.08184205 0.060901605 -0.32092968 0.06622137 0.09702215 -0.24605803 -0.08941378
-0.014474448 0.17487903 0.121823415 0.12785798 -0.012796128 -0.12811336 -0.12171926 -0.10170374
-0.07877269 -0.07478122 0.102452576 -0.095756285 -0.07685652 0.2448781 -0.07994031 0.10373294
-0.1541048 -0.1091874 0.1384406 -0.061582666 0.19226256 -0.012055221 0.17650545 -0.0565003
-0.13144813 -0.096484065 -0.17455502 0.007568345 0.032980204 -0.055717137 -0.009822395 -0.04781824
0.06000608 0.05064961 0.0009723237 0.32365763 -0.3023987 -0.16679467 0.016882116 -0.37235358
-0.12280354 0.15485545 -0.04136402 0.17379771 -0.13706973 -0.098927096 0.03642919 0.25749677
0.041497763 0.08534235 -0.23800664 -0.047271412 -0.2890162 -0.074638374 0.056370378 -0.029375285
-0.06836226 -0.323464 -0.15956193 0.2296379 0.07507963 -0.5974333 0.019676471 -0.17614427
0.1434855 -0.08894756 -0.15313089 0.11487988 0.04125119 0.19822675 -0.030687496 -0.11928011
-0.033063333 0.16231407 0.0150228515 0.097740084 -0.4081024 -0.09487144 0.15518063 0.1682195
-0.20155491 -0.15739317 0.037036452 -0.56504816 0.0014770876 -0.07757312 -1.1001518 -0.09421642
0.065524936 0.1536905 0.016450515 0.10221606 -0.087385714 -0.061226685 -0.065069765 0.121600315
0.11029435 0.16827889 0.22620846 0.094312355 0.03226652 -0.110421695 0.05354421 0.0890955
0.09800085 -0.010371217 0.08432349 0.108836286 0.03132245 -0.112527974 -0.118046604 0.058159582
0.22760214 0.61300474 -0.07646147 -0.015478609 0.2058134 -0.017059743 -0.17403328 -0.10517889
0.033392034 0.036169127 0.14506154 0.40524802 0.045175955 0.03945015 -0.013251133 0.20695494
0.049294516 -0.113766 0.05556007 0.08271226 0.16428511 -0.07826103 -0.14109026 -0.284286
-0.10301879 0.1682931 -0.00065589976 0.24977843 0.29334217 -0.19641557 0.26170817 -0.026964216
-0.23394841 -0.17826077 0.2390348 -0.018758541 -0.036805246 -0.3282835 -0.5133282 0.07747946
-0.038006477 0.011220038 -0.058039743 -0.11235156 0.10860178 0.24148148 0.1082689 -0.4276733
00000000: 3dc2 4bbd 9ba2 39be 379b 753d fcfd 013e
00000010: df1c bc3e ad4a 29bc 99d2 a2bd f3dd 1bbe
00000020: c223 3d3e ffd4 143f 751a 83bd c5d9 933d
00000030: 39e7 ab3d f0cb 48bd d2ba c4bd 22e9 663e
00000040: 658e feba 3f9d 11be 7fca 01bc 391d 0dbe
00000050: d709 523e b328 bcbc caf6 c6bd 39ea af3d
00000060: ea04 b5bd 0ba8 703e 6032 8f3c 4335 d9bc
00000070: d294 39bd 75ae 6abd 2a9f 083e 0444 d4bd
00000080: 6618 883d d183 0b3e c1f8 223f 8eca 453d
00000090: 7a97 483b f9d3 a7bd 701e 373d 910e f3bc
000000a0: f35c a23d 6117 e63d dd4e adbe 8711 e9bd
000000b0: 11d7 163d fe18 a03e d0ea 933e c85a eabd
000000c0: 22aa abbd 8cd7 60be 56ae 3d3e 91fb 70bd
000000d0: 6e54 16bd 59b1 7abe 4632 adbd 5e88 6cbd
000000e0: 8851 24be 1cfe 5a3c 14ec 9ebd 2204 823e
000000f0: d4af 1c3d f445 e8b8 d734 b73d 2c22 7dbd
00000100: 1fe1 55bc fc58 09bf 0fd6 3f3e 1693 91bd
00000110: f20a 21bc f254 fbbd 5d69 dcbd c7af c0be
00000120: 41ee 95bd f982 c1bd 7fcd e2bd 310f 90be
00000130: 2f46 323d 00e9 9a3e e386 9c3d 82f1 5c3e
00000140: 1140 10be acef b6bd 29c6 adbe fe67 2ebe
00000150: 590b aebd c268 46bd b07f 13bd 30cf ab3d
00000160: 7468 833c ce9c a73d f673 793d e550 a4be
00000170: 129f 873d 8db3 c63d a3f6 7bbe 921e b7bd
00000180: 3c26 6dbc 7d13 333e 8e7e f93d 34ed 023e
00000190: daa6 51bc 2630 03be f347 f9bd 0d4a d0bd
000001a0: 9353 a1bd e526 99bd a8d2 d13d df1b c4bd
000001b0: f366 9dbd 53c1 7a3e bfb7 a3bd f071 d43d
000001c0: a6cd 1dbe a59d dfbd 5fc3 0d3e 1b3e 7cbd
000001d0: 7ae0 443e 4383 45bc d8bd 343e dc6c 67bd
000001e0: 579a 06be 7099 c5bd 8dbe 32be e1ff f73b
000001f0: 4016 073d a737 64bd 1cee 20bc 0fdd 43bd
00000200: efc8 753d f775 4f3d 8ae3 7e3a 74b6 a53e
00000210: 01d4 9abe 39cc 2abe 5d4c 8a3c 21a5 bebe
00000220: 6c80 fbbd 6d92 1e3e 526d 29bd 07f8 313e
00000230: 025c 0cbe 4a9a cabd c636 153d 9ed6 833e
00000240: 8ff9 293d f8c7 ae3d 03b8 73be ab9f 41bd
00000250: eef9 93be 01dc 98bd a0e4 663d 70a4 f0bc
00000260: 8301 8cbd 139d a5be 3464 23be 3326 6b3e
00000270: 59c3 993d 64f1 18bf 8d30 a13c 2a5f 34be
00000280: dded 123e 232a b6bd 58ce 1cbe 2446 eb3d
00000290: 02f7 283d f4fb 4a3e 5864 fbbc 2149 f4bd
000002a0: 6b6d 07bd a935 263e 6822 763c f42b c83d
000002b0: ccf2 d0be f54b c2bd ace7 1e3e bc41 2c3e
000002c0: 6964 4ebe ad2b 21be 89b3 173d ffa6 10bf
000002d0: d69a c13a a8de 9ebd c6d1 8cbf 8af4 c0bd
000002e0: f031 863d 0b61 1d3e 3bc3 863c a756 d13d
000002f0: 48f7 b2bd d5c8 7abd 4c43 85bd 9609 f93d
00000300: 01e2 e13d 4d51 2c3e 31a3 673e d626 c13d
00000310: e629 043d c524 e2bd 2c51 5b3d b477 b63d
00000320: abb4 c83d 09ec 29bc cbb1 ac3d 8fe5 de3d
00000330: f84b 003d 1175 e6bd 6bc2 f1bd be38 6e3d
00000340: 8910 693e e1ed 1c3f d597 9cbd fe99 7dbc
00000350: bfc0 523e e0c0 8bbc c835 32be 0868 d7bd
00000360: 16c6 083d 1426 143d 038b 143e ab7c cf3e
00000370: 6c0a 393d 7b96 213d 481b 59bc ffeb 533e
00000380: 0ce9 493d 26fe e8bd f592 633d 0c65 a93d
00000390: 5b3a 283e 5247 a0bd f779 10be ef8d 91be
000003a0: 84fb d2bd 0755 2c3e b0f0 2bba ebc5 7f3e
000003b0: f230 963e 2a21 49be 9dfe 853e 0fe4 dcbc
000003c0: 2c90 6fbe fe89 36be 8ac5 743e 83ab 99bc
000003d0: 19c1 16bd c614 a8be 7a69 03bf 8dad 9e3d
000003e0: aeac 1bbd 40d4 373c 15bb 6dbd 9318 e6bd
000003f0: 9c6a de3d ec46 773e 16bc dd3d fff7 dabe

fc1.bias f4 [64]
-0.041236278 0.06961819 0.044746403 -0.02362772 0.0048031537 -0.029057512 -0.011965212 0.039139982
0.07647249 0.09122343 -0.03132536 0.1857791 0.109368496 -0.02387945 0.06803223 -0.19294481
-0.08524388 0.14066203 0.10954147 0.04780449 -0.06744335 0.006604757 -0.17637545 -0.15724933
0.13878472 -0.15534188 -0.08018428 -0.21342222 -0.04851852 0.01399518 -0.077215716 0.14036714
-0.10890441 0.07446817 -0.030572306 -0.030163 -0.103312746 0.059901964 0.090225995 0.028367504
0.035027325 0.12056353 -0.16845952 -0.08893474 -0.055923764 -0.004498066 0.077409595 -0.06681425
0.05230878 0.00731889 0.06196645 0.08194449 0.10337029 -0.08034345 -0.01904881 0.20341001
-0.012151868 -0.0715782 -0.12585126 -0.067289874 0.1967794 -0.024038348 -0.15350962 0.11140959
00000000: 5fe7 28bd fb93 8e3d 0148 373d ec8e c1bc
00000010: c663 9d3b 050a eebc bd09 44bc 3f51 203d
00000020: 9c9d 9c3d 5ad3 ba3d 054f 00bd e03c 3e3e
00000030: 97fc df3d d69e c3bc 7b54 8b3d 5393 45be
00000040: 5894 aebd b509 103e 4757 e03d a4ce 433d
00000050: bd1f 8abd b86c d83b c49b 34be f805 21be
00000060: 951d 0e3e f111 1fbe a837 a4bd 5b8b 5abe
00000070: 5bbb 46bd 0a4c 653c 4623 9ebd 67bc 0f3e
00000080: 4609 dfbd c582 983d c672 fabc 6518 f7bc
00000090: a295 d3bd c35b 753d 68c8 b83d f862 e83c
000000a0: d078 0f3d 03ea f63d a780 2cbe 6b23 b6bd
000000b0: 5110 65bd 8364 93bb ec88 9e3d e9d5 88bd
000000c0: bb41 563d 4dd3 ef3b 88d0 7d3d 83d2 a73d
000000d0: cdb3 d33d 1b8b a4bd 400c 9cbc b74a 503e
000000e0: a118 47bc 9797 92bd 27df 00be 46cf 89bd
000000f0: 8a80 493e 12ec c4bc a031 1dbe b62a e43d

fc2.weight f4 [64, 64]
-0.20767307 -0.24539839 -0.14634095 0.0030258433 0.08034538 0.053351365 0.1267046 -0.09825202
0.12913689 -0.17711158 0.01568206 -0.097849496 0.05144739 -0.44336393 -0.035322573 -0.43300098
0.107629366 0.009800297 0.07885331 -0.16394633 0.08386475 -0.45106137 -0.018212326 -0.40141103
-0.0075357235 -0.039722536 0.14518958 0.08178793 -0.06819998 -0.50105596 -0.075183 -0.030865429
-0.14259571 -0.2508655 -0.20271915 0.11181582 0.0072355745 -0.102305904 -0.1432366 0.2120868
0.030899365 -0.2277199 -0.3310459 0.12846573 -0.3993953 -0.026619196 -0.2747953 -0.10416926
-0.017674569 -0.043479204 0.126343 0.0979292 -0.24566615 -0.27973527 -0.22054003 0.06585164
-0.21550335 0.015963983 0.18104073 0.16048527 0.0050445064 -0.24358058 -0.23898265 -0.009097567
0.10412204 0.0012112543 -0.099409275 -0.4642352 0.035915516 0.16975498 0.027613746 -0.10841369
-0.13682039 0.21315305 -0.13845442 -0.067877345 0.07876967 0.011861778 0.19826809 0.05187743
-0.13065286 -0.15336213 -0.25522235 -0.1065855 -0.035025198 0.19938019 0.15831017 0.0019591157
0.059397142 0.076440215 0.09366671 -0.15612322 0.071191825 -0.13972327 -0.3017154 0.19737059
-0.319381 0.013938732 -0.08878783 0.08743506 -0.027837448 -0.05565126 0.053736858 0.15436675
-0.12458184 -0.373824 -0.02517964 -0.09492713 -0.18799788 -0.014770161 -0.31762844 -0.092293344
-0.038370397 -0.25084946 -0.15007263 0.32193026 0.04440731 0.017014414 -0.20761506 0.13633111
0.012485268 -0.09905162 -0.13122366 0.057855234 -0.12976131 0.017799418 -0.008056222 -0.1981298
-0.2808462 -0.0060883528 0.026192583 -0.002072926 0.005659562 0.020532077 0.0431665 0.009080773
-0.18254736 0.10184539 -0.11311061 -0.17674443 -0.11984939 0.05001945 -0.0083982805 0.054124113
0.11444483 0.08757651 0.017404193 0.23641981 -0.21458073 -0.04459798 -0.014592432 -0.063057646
-0.16113299 0.1445252 0.15059632 0.115790695 0.14881364 0.024493663 -0.11535688 0.0067575676
-0.075387515 -0.0018022453 -0.33294788 0.05555139 -0.14314243 -0.06068332 -0.022444537 0.24049929
0.17720729 -0.029208036 0.008616986 -0.19099854 -0.22783726 -0.07939329 0.030090986 -0.05185431
-0.03782684 0.041981075 0.22462331 -0.038416512 -0.08166475 -0.19741458 0.60014105 -0.072224565
-0.09111954 -0.042463157 -0.055529915 -0.14586836 0.07217672 -0.02542498 0.022407178 -0.06863257
-0.21890503 -0.05686034 -0.23525114 0.06918283 0.15438814 -0.32637674 -0.2584585 0.075455464
-0.09087778 0.117153555 -0.0100516025 0.036707778 -0.3161627 -0.17764471 -0.10283926 -0.004481326
-0.20616919 0.06707017 -0.23746167 -0.03228235 0.11142487 -0.31742167 -0.260432 -0.27036485
0.048197262 -0.021490378 0.16530836 0.12676291 -0.02017573 0.051968597 -0.1149422 -0.0031103194
-0.32658926 0.19334845 0.012429857 -0.011227443 -0.06261498 0.11512927 -0.3823682 -0.025215106
-0.06992214 -0.0470063 -0.06889465 0.044028178 -0.33362058 -0.22391959 -0.074976966 0.05394788
0.09200743 -0.049782313 -0.30775845 -0.17643023 -0.027283818 -0.24205923 -0.025994165 -0.16425774
-0.12636678 0.04443049 -0.049027618 -0.2129652 -0.34463522 0.032133654 0.20230216 0.3158492
00000000: 40a8 54be b749 7bbe 67da 15be 3a4d 463b
00000010: 1e8c a43d f686 5a3d dabe 013e 5b38 c9bd
00000020: 763c 043e bd5c 35be aa77 803c 5165 c8bd
00000030: 80ba 523d 9900 e3be 67ae 10bd 4eb2 ddbe
00000040: c96c dc3d 6d91 203c d87d a13d 8ce1 27be
00000050: 48c1 ab3d 84f1 e6be 0432 95bc bf85 cdbe
00000060: 3bee f6bb 19b4 22bd 94ac 143e 6e80 a73d
00000070: 6eac 8bbd 3445 00bf 8bf9 99bd 7fd9 fcbc
00000080: 9c04 12be 7171 80be 9c95 4fbe b1ff e43d
00000090: 6618 ed3b c285 d1bd 9eac 12be 482d 593e
000000a0: aa20 fd3c 682f 69be d97e a9be 858c 033e
000000b0: 8a7d ccbe 8010 dabc f8b1 8cbe b156 d5bd
000000c0: 42ca 90bc 4017 32bd 0f60 013e 1b8f c83d
000000d0: e88f 7bbe 7639 8fbe 3fd5 61be 3add 863d
000000e0: e9ac 5cbe e6c6 823c be62 393e 4056 243e
000000f0: 634c a53b 306d 79be deb7 74be f60d 15bc
00000100: f03d d53d f3c2 9e3a 1797 cbbd 3cb0 edbe
00000110: 261c 133d 40d4 2d3e 3936 e23c ff07 debd
00000120: a51a 0cbe cb44 5a3e ffc6 0dbe 4703 8bbd
00000130: fe51 a13d e757 423c ca06 4b3e 6e7d 543d
00000140: ddc9 05be f60a 1dbe 81ac 82be 8049 dabd
00000150: 9576 0fbd 522a 4c3e 101c 223e 8264 003b
00000160: 6b4a 733d b08c 9c3d 55d4 bf3d c4de 1fbe
00000170: 05cd 913d 9e13 0fbe 717a 9abe 841b 4a3e
00000180: e885 a3be 485f 643c 65d6 b5bd 2711 b33d
00000190: 5c0b e4bc 93f2 63bd 2e1b 5c3d 5112 1e3e
000001a0: c424 ffbd dc65 bfbe 8845 cebc 2869 c2bd
000001b0: 8482 40be 8cfe 71bc 32a0 a2be 4b04 bdbd
000001c0: 472a 1dbd 576f 80be a4ac 19be 0bd4 a43e
000001d0: 71e4 353d d061 8b3c 0b99 54be 629a 0b3e
000001e0: 028f 4c3c 93db cabd 7f5f 06be 9cf9 6c3d
000001f0: 26e0 04be 16d0 913c 3ffe 03bc 8ae2 4abe
00000200: 13cb 8fbe ce80 c7bb d491 d63c edd9 07bb
00000210: d973 b93b e332 a83c 5bcf 303d 86c7 143c
00000220: b2ed 3abe 5194 d03d 89a6 e7bd 7efc 34be
00000230: 9973 f5bd 32e1 4c3d f198 09bc 3fb1 5d3d
00000240: 0d62 ea3d 505b b33d 3d93 8e3c 0918 723e
00000250: 0dbb 5bbe 5fac 36bd 1915 6fbc 5e24 81bd
00000260: 0c00 25be 6afe 133e ec35 1a3e ac23 ed3d
00000270: 9a62 183e efa6 c83c 3a40 ecbd 966e dd3b
00000280: c564 9abd 5139 ecba 2578 aabe db89 633d
00000290: ee93 12be 138f 78bd 9bdd b7bc 7245 763e
000002a0: d475 353e b145 efbc 422e 0d3c 1f95 43be
000002b0: 2c4e 69be f398 a2bd 5f81 f63c 2f65 54bd
000002c0: 51f0 1abd 59f4 2b3d a703 663e a25a 1dbd
000002d0: d93f a7bd 0c27 4abe d8a2 193f 79ea 93bd
000002e0: e29c babd d9ed 2dbd 5673 63bd 845e 15be
000002f0: 63d1 933d 0c48 d0bc 428f b73c 3c8f 8cbd
00000300: a428 60be 63e6 68bd ade5 70be baaf 8d3d
00000310: ed17 1e3e da1a a7be ac54 84be 6588 9a3d
00000320: 211e babd 34ee ef3d 7aaf 24bc e55a 163d
00000330: 14e0 a1be 7fe8 35be 649d d2bd 16d8 92bb
00000340: 041e 53be 165c 893d 2729 73be 7f3a 04bd
00000350: b932 e43d 1885 a2be 5857 85be 436d 8abe
00000360: 7e6a 453d 970c b0bc 9846 293e 23ce 013e
00000370: 9347 a5bc 06dd 543d d166 ebbd 80d6 4bbb
00000380: b536 a7be 23fd 453e 99a6 4b3c 4ff3 37bc
00000390: 483c 80bd e5c8 eb3d c4c5 c3be e98f cebc
000003a0: 5733 8fbd ae89 40bd a318 8dbd e456 343d
000003b0: 51d0 aabe 2d4b 65be 868d 99bd 74f8 5c3d
000003c0: 646e bc3d 8ae8 4bbd 8492 9dbe 20aa 34be
000003d0: 5082 dfbc 60de 77be b7f1 d4bc 2e33 28be
000003e0: 4b66 01be bffc 353d 2fd1 48bd 8d13 5abe
000003f0: 0774 b0be 949e 033d 4c28 4f3e fdb6 a13e

fc2.bias f4 [64]
0.08242048 0.0043303072 -0.058147237 -0.058652077 -0.035393864 -0.060299814 0.09105915 0.04758905
0.15227765 0.06628132 0.040417463 0.0329546 -0.028336272 -0.12945738 -0.11539925 -0.11953341
0.08592864 -0.08974423 0.07965121 -0.072952755 0.102598056 0.010874684 -0.13119447 0.09848498
0.016135035 -0.079758525 0.0036993534 0.116940334 -0.031112567 0.16074261 -0.040885232 0.011142498
-0.03491212 -0.048874613 -0.07418745 -0.13784926 0.05387474 0.13185444 -0.015974682 -0.063813634
-0.021877257 -0.15555061 0.029615268 -0.057726096 0.0018547277 -0.100756496 -0.101377994 0.05185677
0.129961 0.0915243 0.079285145 -0.06774625 -0.01609035 -0.0036460045 -0.023357736 0.024324438
-0.15266453 0.0014049298 0.113628745 -0.09342759 -0.086267605 0.028166557 -0.134723 0.040662445
00000000: 12cc a83d 40e5 8d3b cc2b 6ebd 293d 70bd
00000010: 28f9 10bd f0fc 76bd 387d ba3d bcec 423d
00000020: acee 1b3e 80be 873d c88c 253d 67fb 063d
00000030: 7821 e8bc 7a90 04be 7156 ecbd efcd f4bd
00000040: 5bfb af3d d3cb b7bd 2c20 a33d 4168 95bd
00000050: ee1e d23d bb2b 323c d857 06be 7eb2 c93d
00000060: 9f2d 843c 7058 a3bd da70 723b 6a7e ef3d
00000070: c8df febc b699 243e 4677 27bd 068f 363c
00000080: 0300 0fbd bf30 48bd 97ef 97bd 5b28 0dbe
00000090: c2ab 5c3d da04 073e 56dd 82bc b9b0 82bd
000000a0: ef37 b3bc a948 1fbe b89b f23c 3372 6cbd
000000b0: 561a f33a 6c59 cebd 449f cfbd c467 543d
000000c0: 7f14 053e 1871 bb3d 4060 a23d 8cbe 8abd
000000d0: e9cf 83bc cef1 6ebb b958 bfbc 0b44 c73c
000000e0: 1754 1cbe 9f25 b83a 30b6 e83d f756 bfbd
000000f0: 12ad b0bd 8dbd e63c d3f4 09be aa8d 263d

adv_fc1.weight f4 [64, 64]
0.064305834 -0.13039218 0.08480559 -0.05545643 0.01103163 0.005651757 -0.048334107 0.027037116
-0.08413792 0.025465917 0.081709966 -0.04018794 0.055773817 -0.11979805 -0.11395138 -0.11281664
-0.0890004 -0.06139568 -0.028456967 0.008124024 -0.084054545 0.08338964 0.025907634 0.003489319
0.104519375 -0.0908526 -0.06324993 -0.060906593 0.05322432 -0.024619596 -0.050597295 -0.17947431
-0.0427858 -0.08350631 0.062169272 -0.07506423 0.044003557 -0.12482534 -0.087492734 0.028734904
-0.10893857 -0.028881306 -0.14394765 0.10390933 -0.034811176 -0.007214308 0.082867585 0.10277126
-0.031072538 0.072073564 0.048514422 0.09210197 0.023795856 -0.10791294 0.052018255 -0.033655792
-0.08468997 0.07018585 0.022997862 -0.09693481 -0.098357596 0.01855072 0.012599989 0.09918417
0.23431209 -0.1615376 -0.140247 -0.016413938 -0.100205265 0.09517019 -0.074345514 -0.24128653
-0.072529666 0.10825506 -0.207023 -0.18065472 0.25077343 -0.21651083 0.16861118 -0.018217878
-0.024089092 0.014927658 0.0932329 -0.009228677 -0.21126465 0.24001035 -0.018458486 0.10400193
-0.008540188 0.21185537 -0.13449906 0.30559975 0.30327526 -0.22901407 -0.112343 -0.0662542
-0.1533951 0.12186896 -0.18972075 0.010914258 0.12323158 0.14968014 0.17094678 -0.3982811
0.0038582291 0.02229628 0.26392803 0.13027678 0.25543553 -0.16999753 0.146969 0.21031542
-0.19834712 -0.055490054 -0.35650745 -0.21690965 0.02660944 0.12731336 -0.02381157 0.15488327
0.19501701 -0.48081198 -0.02708002 -0.14224723 -0.07693221 -0.045113605 0.029068375 0.11326472
0.10037215 -0.010704944 0.094839066 -0.25923347 -0.018508978 -0.10538495 0.055661336 -0.13275363
0.012683627 -0.27146858 -0.21900183 0.0927407 -0.04901946 -0.08218955 -0.06378998 0.06116866
-0.022010209 -0.029860696 0.0448624 -0.100630365 -0.06936999 -0.17931195 0.12239326 0.10193155
0.021352656 0.25654492 -0.0983887 -0.14461781 0.056719266 0.14431493 0.08453688 -0.090737686
-0.21294877 -0.01894298 0.010820727 0.061347246 0.010514736 -0.08506424 -0.21554397 -0.30091405
-0.21452332 0.26167557 -0.044836488 -0.05371154 -0.03235224 -0.0025395604 -0.19844267 0.07817942
0.065543324 0.044552855 -0.1961156 0.022081086 0.056955628 -0.12826212 -0.10427124 0.040932246
0.21781103 -0.061329734 0.044070914 -0.084751695 -0.019522069 -0.07345237 -0.096854754 -0.16896978
-0.3393697 0.100374624 0.0991815 0.08849627 0.13220994 -0.04139462 -0.018505393 -0.054672405
0.14190395 -0.10385642 -0.33626562 0.42493936 0.07227123 0.029379336 -0.25244612 -0.050888583
-0.09450989 0.025995284 -0.061156675 -0.080643624 -0.053162683 -0.12391482 8.992037e-05 -0.18641147
-0.040813036 -0.065662585 0.15910271 0.291407 0.062303282 0.05831441 -0.07787449 0.20776023
-0.06375119 -0.025594039 0.09621127 -0.19561882 0.19659139 0.22654772 0.023917379 0.10577359
-0.10640279 0.34625608 -0.20635898 0.016138166 0.34579995 -0.1975831 -0.2116529 -0.12460416
-0.031928238 -0.075969495 0.17608267 0.040422138 -0.08444367 0.084960684 -0.17107369 -0.17612606
-0.078594066 -0.06342937 0.08137845 0.13103954 0.250119 -0.057784665 0.11887838 -0.28709832
00000000: c7b2 833d 8785 05be 8eae ad3d 4826 63bd
00000010: 03be 343c 6032 b93b fcf9 45bd f17c dd3c
00000020: 8050 acbd e69d d03c 8e57 a73d 1c9c 24bd
00000030: 1673 643d ae58 f5bd 575f e9bd 690c e7bd
00000040: d745 b6bd 097a 7bbd 961e e9bc a01a 053c
00000050: ca24 acbd 30c8 aa3d 3f3c d43c 0fad 643b
00000060: 410e d63d ee10 babd 2e89 81bd 3179 79bd
00000070: bf01 5a3d 09af c9bc 1c3f 4fbd 1dc8 37be
00000080: 2a40 2fbd 5b05 abbd 35a5 7e3d 46bb 99bd
00000090: 133d 343d 6ea4 ffbd 642f b3bd 7665 eb3c
000000a0: 2f1b dfbd 7d98 ecbc 0367 13be 6ace d43d
000000b0: 2a96 0ebd 0066 ecbb 7bb6 a93d bd79 d23d
000000c0: d68b febc 4e9b 933d 0fb7 463d f59f bc3d
000000d0: 87ef c23c 7601 ddbd 1811 553d a8da 09bd
000000e0: ef71 adbd 99bd 8f3d 0366 bc3c c285 c6bd
000000f0: b56f c9bd aef7 973c 2f70 4e3c 1221 cb3d
00000100: 82ef 6f3e 1d6a 25be e99c 0fbe 8676 86bc
00000110: 6b38 cdbd 97e8 c23d 7642 98bd d113 77be
00000120: 6f8a 94bd d4b4 dd3d d6fd 53be 8dfd 38be
00000130: 6065 803e 04b5 5dbe 69a8 2c3e a93d 95bc
00000140: 7d56 c5bc 2393 743c e4f0 be3d e033 17bc
00000150: c355 58be 46c5 753e 4036 97bc f7fe d43d
00000160: 25ec 0bbc 9df0 583e 1fba 09be 9277 9c3e
00000170: e546 9b3e aa82 6abe 1614 e6bd 48b0 87bd
00000180: 9b13 1dbe 6f96 f93d 2846 42be b7d1 323c
00000190: d760 fc3d c045 193e ac0c 2f3e 80eb cbbe
000001a0: 58da 7c3b b0a6 b63c 9321 873e 4767 053e
000001b0: 72c8 823e d513 2ebe 0b7f 163e ed5c 573e
000001c0: 821b 4bbe 8a49 63bd 2588 b6be 901d 5ebe
000001d0: 0afc d93c 6f5e 023e 7b10 c3bc b899 1e3e
000001e0: 8ab2 473e fd2c f6be ebd6 ddbc 42a9 11be
000001f0: a28e 9dbd 0bc9 38bd cd20 ee3c 55f7 e73d
00000200: ea8f cd3d ca63 2fbc fc3a c23d 40ba 84be
00000210: 24a0 97bc 11d4 d7bd 24fd 633d 91f0 07be
00000220: fdce 4f3c eefd 8abe 0442 60be d6ee bd3d
00000230: a1c8 48bd ff52 a8bd 52a4 82bd fd8b 7a3d
00000240: c14e b4bc 6b9e f4bc a3c1 373d 4b17 cebd
00000250: da11 8ebd 8d9d 37be 51a9 fa3d 7dc1 d03d
00000260: c4eb ae3c db59 833e 0480 c9bd b116 14be
00000270: 7652 683d 4bc7 133e ac21 ad3d aed4 b9bd
00000280: 3e0f 5abe 4f2e 9bbc 6b49 313c 4047 7b3d
00000290: 0046 2c3c 2936 aebd 8fb7 5cbe 6811 9abe
000002a0: 00ac 5bbe 57fa 853e 77a6 37bd a200 5cbd
000002b0: c883 04bd c16e 26bb 8e34 4bbe 881c a03d
000002c0: 943b 863d 0e7d 363d 87d2 48be 65e3 b43c
000002d0: 4e4a 693d 2557 03be 298c d5bd 92a8 273d
000002e0: db09 5f3e e334 7bbd b483 343d 4c92 adbd
000002f0: bfec 9fbc 326e 96bd c95b c6bd 6a06 2dbe
00000300: dec1 adbe 3691 cd3d ac1f cb3d 883d b53d
00000310: 0b62 073e 688d 29bd 9f98 97bc 2cf0 5fbd
00000320: 454f 113e adb2 d4bd 022b acbe a791 d93e
00000330: f002 943d efac f03c 9e40 81be 8c70 50bd
00000340: 678e c1bd 10f4 d43c 6c7f 7abd 7c28 a5bd
00000350: 1dc1 59bd 0ec7 fdbd a293 bc38 a6e2 3ebe
00000360: 922b 27bd 1b7a 86bd d2eb 223e 4c33 953e
00000370: ba31 7f3d 17db 6e3d a97c 9fbd 19bf 543e
00000380: fc8f 82bd 97aa d1bc 6a0a c53d 4d50 48be
00000390: 414f 493e 20fc 673e 61ee c33c d39f d83d
000003a0: b5e9 d9bd 7a48 b13e c54f 53be 3034 843c
000003b0: b10c b13e 3953 4abe 8abb 58be 7730 ffbd
000003c0: 2fc7 02bd e595 9bbd 044f 343e af91 253d
000003d0: cef0 acbd deff ad3d f12d 2fbe 645a 34be
000003e0: edf5 a0bd 42e7 81bd bfa9 a63d 3b2f 063e
000003f0: 990f 803e 9daf 6cbd 8276 f33d 8dfe 92be

adv_fc1.bias f4 [64]
-0.15423581 -0.052154515 0.15757586 -0.055911075 -0.13954428 0.048920397 -0.07228162 -0.039695192
0.004011559 -0.044640306 0.08570533 -0.14992103 0.02981875 -0.13521448 0.10184042 0.08652119
-0.05067687 -0.07912301 0.09849372 -0.17847018 0.07773478 -0.1282821 0.049442 0.0015043033
-0.076969944 0.114909485 -0.0230623 0.054799777 0.0043013543 -0.1485553 0.02632163 -0.15803216
-0.07904914 -0.10036994 -0.004243422 0.0033006659 0.16193011 -0.043571264 -0.17872886 -0.15017301
0.11091793 -0.08994403 0.027900338 -0.11192738 -0.011640143 0.019283725 0.09054222 -0.11340468
0.07722012 0.024640642 0.08589382 0.12287589 -0.022469856 0.062078383 0.026926631 0.1349834
-0.1359741 -0.092541374 -0.031726126 0.15060094 -0.10849876 0.0037743303 0.11332392 0.08469486
00000000: feef 1dbe f99f 55bd 915b 213e 0303 65bd
00000010: b2e4 0ebe c160 483d 6308 94bd 6d97 22bd
00000020: 6573 833b c1d8 36bd 4786 af3d e684 19be
00000030: 7446 f43c aa75 0abe b691 d03d 0632 b13d
00000040: 8d92 4fbd 3f0b a2bd 13b7 c93d e3c0 36be
00000050: 6a33 9f3d 625c 03be b283 4a3d 0b2c c53a
00000060: 6ba2 9dbd aa55 eb3d 26ed bcbc bb75 603d
00000070: 60f2 8c3b e11e 18be 76a0 d73c 2fd3 21be
00000080: 84e4 a1bd c18e cdbd 670c 8bbb fc4f 583b
00000090: 02d1 253e c877 32bd b304 37be f4c6 19be
000000a0: f128 e33d 9334 b8bd 408f e43c 2f3a e5bd
000000b0: 4cb6 3ebc e7f8 9d3c 336e b93d b640 e8bd
000000c0: 9525 9e3d 2cdb c93c 19e9 af3d 5ba6 fb3d
000000d0: b412 b8bc e745 7e3d 3d95 dc3c 1739 0a3e
000000e0: cb3c 0bbe 5586 bdbd 41f3 01bd 2237 1a3e
000000f0: 9934 debd c15a 773b 5f16 e83d 8074 ad3d

val_fc1.weight f4 [64, 64]
0.068310924 -0.07114788 0.03972277 0.06162702 0.030140853 -0.01831527 -0.01593804 -0.046003792
-0.115813136 -0.020645859 0.049664963 0.025665531 -0.11160271 0.08175566 0.0027669072 -0.07056677
-0.006639783 -0.14089395 -0.04556556 0.06739275 0.03219317 -0.039230313 -0.053771082 -0.017806148
-0.021155825 0.019709866 -0.11324026 -0.104271546 -0.044396237 0.0911027 -0.0303092 0.048650507
-0.14776091 -0.076010324 0.08898236 -0.07097153 0.006837006 -0.004729822 0.01879403 -0.008184838
0.009024489 0.052571714 0.081590176 -0.06006755 -0.09838316 -0.07744864 -0.053988874 0.013376565
-0.10744196 -0.028017653 -0.08126027 -0.07997942 -0.13400595 -0.013290063 0.037598096 -0.056123514
-0.04121409 -0.011361115 0.044240694 -0.013385788 -0.1251737 -0.117890194 -0.006707996 0.06220238
0.08270381 0.16960034 -0.3309551 0.036069136 -0.10821348 0.017774373 0.17211889 -0.015361412
0.23506881 0.1799942 0.055068854 -0.19524716 -0.15467823 0.14823952 0.0639585 0.14616984
0.19221595 -0.16454835 0.25904956 -0.073494844 0.08368436 -0.20577213 0.028633395 -0.068159595
0.027885992 -0.30542397 0.0690945 -0.07624787 0.08447833 -0.049119145 -0.07840884 -0.104885936
0.0070709386 0.2831631 -0.07313854 0.120576665 0.09296601 -0.14107826 0.22796565 0.19535631
-0.13232599 0.12925427 -0.36970827 0.06645456 -0.024147706 -0.07185498 -0.045670036 -0.27441406
-0.04970835 -0.20113042 0.019930964 0.11364817 -0.13927056 -0.06479584 -0.24951193 0.17104729
-0.15111816 0.18087456 -0.09313004 0.009909347 0.19538279 -0.005097302 -0.023503691 0.14174874
-0.1186372 0.07835851 0.1421755 -0.10802832 -0.21505666 0.13058762 0.1331305 -0.25359547
0.039071295 0.031245865 -0.1823354 0.03814094 0.08823991 0.16429926 0.07207 -0.041562326
0.05507263 0.08792519 0.16623433 -0.0043341103 0.22306548 0.035581976 0.015584962 0.09035513
0.10627702 0.04248077 0.015214936 0.081281446 0.064859256 0.14739077 -0.023001488 0.10885733
0.06171304 0.16711402 -0.13950735 -0.03149371 0.015384604 -0.3692896 0.016379265 0.11610471
0.12556244 -0.03868238 0.06459064 -0.07283704 0.0917397 0.040070206 -0.0004350861 0.0327614
0.11178894 0.019600939 0.04359417 0.14162666 -0.0719531 0.038265232 -0.013774935 -0.036301915
-0.2578402 0.15488762 -0.010228861 -0.00079352333 -0.056612957 -0.027960926 0.07751364 -0.25480166
0.076096505 0.089860305 0.07755878 0.17215572 -0.1465301 0.07279574 0.08340646 -0.038490016
0.1840914 0.1134982 0.032970134 0.006254109 0.0730964 -0.06577475 0.017632173 -0.051129863
0.23028506 -0.0017654182 0.17613481 -0.042527452 -0.08828121 -0.15459011 0.027058009 0.024838848
-0.017008625 0.003339275 0.118539885 -0.2404868 0.11356318 0.02710244 -0.005757428 0.041890193
-0.010839297 0.23940256 -0.10429695 -0.06275581 0.1137183 -0.24103461 0.12512982 0.23365065
-0.108402915 0.08694003 -0.034795627 0.079140276 -0.1184123 -0.05728599 0.04488353 -0.17877609
0.17666538 -0.16715348 0.15318412 0.07026008 -0.214194 0.030187111 -0.10600253 0.16885512
-0.026872398 0.08516333 0.06370818 -0.017003756 0.05122905 0.10205814 0.17907922 0.06949035
00000000: 99e6 8b3d fbb5 91bd 58b4 223d 9d6c 7c3d
00000010: f3e9 f63c e809 96bc 7e90 82bc 796e 3cbd
00000020: 702f edbd 8121 a9bc 7d6d 4b3d 8540 d23c
00000030: f68f e4bd 836f a73d 0055 353b 5085 90bd
00000040: 8992 d9bb 8146 10be f4a2 3abd 3605 8a3d
00000050: fcdc 033d f7af 20bd 113f 5cbd 33de 91bc
00000060: fb4e adbc 9676 a13c 82ea e7bd 528c d5bd
00000070: d4d8 35bd 0d94 ba3d 004b f8bc c145 473d
00000080: a34e 17be 4dab 9bbd 623c b63d 8659 91bd
00000090: f708 e03b 9ffc 9abb f0f5 993c b319 06bc
000000a0: 73db 133c 7055 573d c018 a73d 6409 76bd
000000b0: 1c7d c9bd 649d 9ebd 7023 5dbd 6129 5b3c
000000c0: 880a dcbd 4785 e5bc c96b a6bd 40cc a3bd
000000d0: db38 09be 90be 59bc 7600 1a3d c5e1 65bd
000000e0: 1bd0 28bd f823 3abc bb35 353d 1050 5bbc
000000f0: 892d 00be 6a70 f1bd c0ce dbbb ecc7 7e3d
00000100: 9d60 a93d b6ab 2d3e f272 a9be 3bbd 133d
00000110: 079f ddbd 909b 913c ef3f 303e 6fae 7bbc
00000120: e1b5 703e 6650 383e e18f 613d dfee 47be
00000130: f863 1ebe 1acc 173e adfc 823d 8cad 153e
00000140: 42d4 443e 5d7f 28be 25a2 843e 7784 96bd
00000150: b562 ab3d eeb5 52be 9590 ea3c 4297 8bbd
00000160: 2a71 e43c 8860 9cbe 6b81 8d3d d827 9cbd
00000170: fa02 ad3d 2831 49bd d094 a0bd 70ce d6bd
00000180: 55b3 e73b c1fa 903e a9c9 95bd e6f0 f63d
00000190: f764 be3d d276 10be d46f 693e 7c0b 483e
000001a0: 7780 07be 3b5b 043e 674a bdbe 5419 883d
000001b0: 69d1 c5bc b428 93bd 8110 3bbd 0080 8cbe
000001c0: fc9a 4bbd 22f5 4dbe 4346 a33c 5fc0 e83d
000001d0: f19c 0ebe aeb3 84bd 0e80 7fbe 0527 2f3e
000001e0: b8be 1abe 2e37 393e f6ba bebd d05a 223c
000001f0: 6d12 483e 4507 a7bb d08a c0bc 9526 113e
00000200: 0ff8 f2bd 6d7a a03d 7496 113e f43d ddbd
00000210: d037 5cbe c3b8 053e 5d53 083e 44d7 81be
00000220: 3909 203d 54f7 ff3c 22b6 3abe ad39 1c3d
00000230: 20b7 b43d 113e 283e 7099 933d 423d 2abd
00000240: d793 613d 1f12 b43d 5539 2a3e 2705 8ebb
00000250: 476b 643e 68be 113d 1258 7f3c 1c0c b93d
00000260: c4a7 d93d 5100 2e3d 1148 793c e376 a63d
00000270: eed4 843d 9bed 163e 9e6d bcbc 98f0 de3d
00000280: d0c6 7c3d f01f 2b3e 04db 0ebe 8cff 00bd
00000290: b50f 7c3c 8713 bdbe cf2d 863c 4ec8 ed3d
000002a0: 7193 003e 6a71 1ebd 1948 843d 962b 95bd
000002b0: 06e2 bb3d a820 243d 451c e4b9 d130 063d
000002c0: 9af1 e43d 2692 a03c cd8f 323d 9406 113e
000002d0: 265c 93bd 01bc 1c3d 44b0 61bc 51b1 14bd
000002e0: a103 84be dc9a 1e3e f496 27bc 7304 50ba
000002f0: fde2 67bd 500e e5bc 79bf 9e3d 5d75 82be
00000300: 7cd8 9b3d ae08 b83d 23d7 9e3d 9749 303e
00000310: fd0b 16be ef15 953d 02d1 aa3d b5a7 1dbd
00000320: 7582 3c3e bf71 e83d b10b 073d 45ef cc3b
00000330: 91b3 953d eab4 86bd 5971 903c 8c6d 51bd
00000340: d9cf 6b3e 9b65 e7ba af5c 343e 4431 2ebd
00000350: c7cc b4bd df4c 1ebe c2a8 dd3c d77a cb3c
00000360: ac55 8bbc bdd7 5a3b 0ac5 f23d 2c42 76be
00000370: d093 e83d f005 de3c cea8 bcbb 0d95 2b3d
00000380: 4f97 31bc f225 753e a499 d5bd 1e86 80bd
00000390: 24e5 e83d c7d1 76be 0822 003e 1e42 6f3e
000003a0: 5902 debd 9d0d b23d dc85 0ebd 4c14 a23d
000003b0: 2682 f2bd b7a4 6abd cbd7 373d 1411 37be
000003c0: c5e7 343e 482a 2bbe 4cdc 1c3e 84e4 8f3d
000003d0: ac55 5bbe f64a f73c db17 d9bd 5be8 2c3e
000003e0: 8123 dcbc 1d6a ae3d 6f79 823d 764b 8bbc
000003f0: 8dd5 513d dc03 d13d 8b60 373e f550 8e3d

val_fc1.bias f4 [64]
-0.14973664 0.069820374 0.22462662 0.16803123 -0.15623204 0.03729795 0.11218493 -0.03942065
0.061729778 -0.14301522 0.07739083 -0.12843856 -0.06357983 0.022348784 0.110099055 0.29378033
-0.045334928 -0.12953854 0.056069326 0.3147982 -0.0055539636 0.26518214 0.098531015 0.10500636
0.2759682 -0.14345661 -0.11137676 0.01917219 0.23815684 -0.15452476 0.060879588 -0.083790846
-0.0394096 -0.04165566 -0.10938725 0.14381075 -0.044709448 0.079943255 0.00084121793 0.24838199
-0.13920565 -0.018601835 -0.11550623 0.32869184 0.32427448 -0.15264831 -0.10373916 0.10413178
0.09695701 -0.002464336 -0.0149626685 -0.11794624 -0.07937269 -0.07276756 0.10328609 -0.058565646
-0.11499515 -0.021319129 0.31195828 -0.055594344 0.27866128 -0.15991601 0.2976027 -0.20559102
00000000: 9054 19be fcfd 8e3d 8504 663e 6110 2c3e
00000010: 4bfb 1fbe bcc5 183d 36c1 e53d 8c77 21bd
00000020: 5dd8 7c3d 9572 12be 157f 9e3d 6685 03be
00000030: 2436 82bd cc14 b73c 9d7b e13d 606a 963e
00000040: 1eb1 39bd c0a5 04be f3a8 653d 3b2d a13e
00000050: 06fe b5bb f4c5 873e a1ca c93d 930d d73d
00000060: b44b 8d3e 4ae6 12be 8019 e4bd ff0e 9d3c
00000070: 63df 733e bd3b 1ebe e05c 793d 899a abbd
00000080: f66b 21bd 209f 2abd 6c06 e0bd 2043 133e
00000090: 4121 37bd 4ab9 a33d 2e85 5c3a d957 7e3e
000000a0: ed8b 0ebe e062 98bc 888e ecbd 4c4a a83e
000000b0: 4e07 a63e d74f 1cbe 3275 d4bd 0b43 d53d
000000c0: 6691 c63d b380 21bb fb25 75bc cc8d f1bd
000000d0: 268e a2bd 2907 95bd a887 d33d 88e2 6fbd
000000e0: 9482 ebbd 74a5 aebc ffb8 9f3e e5b6 63bd
000000f0: b1ac 8e3e 06c1 23be 625f 983e 7486 52be

val_fc2.weight f4 [1, 64]
0.012059399 0.20842026 0.17464793 0.24458264 -0.34422034 0.3325695 0.13012108 0.3084826
0.113189444 0.029950624 0.31744558 0.0032390163 0.30864292 0.0180051 -0.32725626 0.1564332
-0.24399452 -0.36081818 0.18260343 0.21611139 0.37732992 0.17328657 0.18317057 0.13069819
0.25829232 -0.24138209 -0.11138202 0.31488717 0.20099357 -0.28421536 0.15983027 -0.18138397
-0.18900566 0.42865685 0.47879484 0.16896242 0.33459795 0.19920228 0.23541242 0.17306004
-0.07150728 0.18495516 -0.11048848 0.23253772 0.24962214 0.048360046 -0.27794614 0.23304455
0.22021571 -0.120686606 0.272704 -0.16907388 0.0020143185 0.26963922 0.19307952 -0.2783058
-0.24086028 0.118637584 0.17432466 -0.16319807 0.14829724 0.007413731 0.1977904 -0.4734319
00000000: c994 453c 1f6c 553e e8d6 323e df73 7a3e
00000010: a63d b0be 8d46 aa3e 763e 053e 6ef1 9d3e
00000020: decf e73d 035b f53c 3a88 a23e ad45 543b
00000030: 7206 9e3e 6e7f 933c 228e a7be 0630 203e
00000040: b3d9 79be 29bd b8be 65fc 3a3e 4e4c 5d3e
00000050: 6331 c13e 0972 313e 1191 3b3e bfd5 053e
00000060: e43e 843e de2c 77be 421c e4bd e438 a13e
00000070: 42d1 4d3e ad84 91be 8caa 233e b8bc 39be
00000080: b38a 41be e978 db3e 9924 f53e 7c04 2d3e
00000090: 6c50 ab3e affb 4b3e f40f 713e a736 313e
000000a0: 6972 92bd e364 3d3e c947 e2bd 5e1e 6e3e
000000b0: f29c 7f3e 2f15 463d f54e 8ebe 3ba3 6e3e
000000c0: 3a80 613e 8a2a f7bd dc9f 8b3e b421 2dbe
000000d0: a802 043b 270e 8a3e a3b6 453e 197e 8ebe
000000e0: 14a4 76be 43f8 f23d 2a82 323e 651d 27be
000000f0: 3bdb 173e e2ee f23b 9189 4a3e aa65 f2be

adv_fc2.weight f4 [4, 64]
0.057112038 0.17087644 0.2274941 -0.07367523 0.30924165 0.20976344 -0.22238587 0.113226555
0.024716724 0.0073116403 0.11181081 -0.24854869 0.04935073 -0.08374208 0.15923204 -0.24289522
0.3618901 0.5398391 0.025128508 0.0421282 0.15700993 -0.21152413 -0.0058121174 0.056514565
0.3924579 0.15255399 0.2136271 0.09453493 -0.30408803 0.13444255 -0.14847651 0.09871633
-0.17816901 -0.37433445 -0.12840934 -0.0620277 0.21520603 0.18843192 0.04943921 0.098065265
-0.05203085 -0.05558392 0.073596776 0.31567052 -0.076502934 0.033120442 -0.048613455 -0.09679658
0.26357633 -0.05713938 0.08731019 -0.030839749 0.13665831 0.082508944 -0.060396582 -0.033892237
-0.028725708 0.012414566 0.12144588 0.15866299 0.082376525 0.082878254 -0.21563116 0.26722324
0.008813168 -0.008198352 0.050824095 0.056519207 0.21069956 -0.1607385 0.071139134 0.1065753
-0.11630237 0.37700978 0.13392876 0.05236966 0.15726471 -0.25338012 0.30134967 0.10367534
-0.2786364 -0.31448564 0.04924559 -0.06847683 0.023232097 -0.21218139 0.014066919 -0.23665696
-0.29870242 0.16705558 0.11701146 -0.017686043 0.11938878 -0.307721 0.14954394 0.20755938
0.013896484 -0.3380313 0.19274582 0.23900148 0.029959368 0.39962924 0.061348394 -0.10510667
-0.095753975 -0.13912274 -0.17371188 -0.224942 -0.027847666 0.050350033 0.066644855 -0.4034541
0.2674345 0.11295015 0.081430264 -0.06286141 -0.3832047 0.10839869 0.0032477425 0.04414477
-0.02594259 -0.13625012 0.35752606 0.1131575 0.38610953 0.07346079 0.5035289 0.12598535
-0.10970172 0.58549064 0.08807612 -0.27220643 -0.05803033 0.40553278 -0.13462009 0.55575293
0.03321037 0.30479795 0.009115143 0.28347754 0.15074348 0.12726231 -0.290812 0.18980654
0.07293313 0.47414863 0.1414626 -0.048003133 -0.12612668 0.17470407 0.19269557 0.15212615
-0.12194101 -0.105627045 -0.08362696 0.013739252 -0.09285833 0.19418819 -0.08142238 0.06366289
0.10281515 -0.20882145 0.105070874 -0.11194288 -0.14045855 -0.05204512 0.0007580588 -0.00059978676
0.23028536 0.24974735 0.30329907 0.17262197 0.32172287 0.112801164 0.21945177 0.08721851
-0.35666016 -0.007020643 0.11965753 -0.2882367 0.3609998 -0.15363258 -0.5890818 -0.013468633
0.1400161 0.053350545 -0.17149085 0.12947358 0.5751396 0.14622456 -0.25926223 0.17574015
0.059476353 -0.38141283 -0.29955187 0.12635869 -0.36978135 0.09197152 0.3396369 0.014798819
0.040671058 -0.54954594 -0.17411098 0.042000394 -0.04903042 -0.012653866 0.07638931 0.1761932
0.25572455 0.1254567 -0.05351746 0.089529276 0.18497181 -0.065421425 -0.1019967 0.17736717
0.23637567 0.19084264 0.007157345 -0.041689903 0.19386186 0.2591807 -0.24040307 -0.3905924
0.16241427 0.28527853 0.21742786 0.185418 -0.06721269 -0.1527798 0.05126633 -0.070289426
0.06819306 -0.024001252 0.26839414 -0.057974447 -0.18469816 -0.08224901 0.14218421 0.07551608
-0.25989383 0.17832555 -0.06494212 0.14432833 0.32983506 0.23802824 0.19918437 0.22320579
0.043508224 -0.16112585 -0.4679514 0.14936511 -0.3920204 0.24669027 0.19230403 0.14968926
00000000: 50ee 693d 3cfa 2e3e 37f4 683e 0ae3 96bd
00000010: ec54 9e3e 3acc 563e 1fb9 63be 53e3 e73d
00000020: ba7a ca3c 7c96 ef3b 11fd e43d 8c83 7ebe
00000030: fe23 4a3d f880 abbd b90d 233e 86b9 78be
00000040: a949 b93e e532 0a3f 4dda cd3c 9f8e 2c3d
00000050: 36c7 203e c899 58be 9373 bebb d17b 673d
00000060: 3ef0 c83e 1d37 1c3e 10c1 5a3e 889b c13d
00000070: 6db1 9bbe 4fab 093e 3a0a 18be ca2b ca3d
00000080: f071 36be c4a8 bfbe bd7d 03be c210 7ebd
00000090: f85e 5c3e 4cf4 403e c580 4a3d 71d6 c83d
000000a0: 4d1e 55bd f7ab 63bd e8b9 963d 919f a13e
000000b0: 92ad 9cbd 4da9 073d e71e 47bd 493d c6bd
000000c0: 7af3 863e fc0a 6abd afcf b23d a4a3 fcbc
000000d0: 28f0 0b3e 73fa a83d 6862 77bd 96d2 0abd
000000e0: 2d52 ebbc 7766 4b3c 9eb8 f83d 8d78 223e
000000f0: 06b5 a83d 13bc a93d 6ace 5cbe 7cd1 883e
00000100: 1b65 103c 6152 06bc ed2c 503d af80 673d
00000110: a0c1 573e a298 24be 65b1 913d 2744 da3d
00000120: f02f eebd 6d07 c13e 9f24 093e 9281 563d
00000130: 000a 213e 0abb 81be 814a 9a3e bd53 d43d
00000140: 6ea9 8ebe 4304 a1be beb5 493d 953d 8cbd
00000150: 3d51 be3c 1446 59be ef78 663c 3456 72be
00000160: 86ef 98be 9e10 2b3e b4a3 ef3d 52e2 90bc
00000170: 1b82 f43d 9b8d 9dbe 0c22 193e 728a 543e
00000180: 14ae 633c 7012 adbe 295f 453e cebc 743e
00000190: 596d f53c 349c cc3e 7448 7b3d 2a42 d7bd
000001a0: a91a c4bd 3176 0ebe 87e1 31be 3257 66be
000001b0: ca20 e4bc d63b 4e3d 197d 883d 8991 cebe
000001c0: 2ded 883e 6952 e73d e9c4 a63d 7cbd 80bd
000001d0: 6833 c4be 2200 de3d 14d8 543b 25d1 343d
000001e0: 8e85 d4bc 2785 0bbe a80d b73e 1fbf e73d
000001f0: 26b0 c53e 9c72 963d 45e7 003f 4e02 013e
00000200: 4cab e0bd b7e2 153f 4161 b43d a45e 8bbe
00000210: 36b1 6dbd fea1 cf3e d9d9 09be d345 0e3f
00000220: 9907 083d 7a0e 9c3e ae57 153c f823 913e
00000230: 805c 1a3e 0d51 023e 4fe5 94be a55c 423e
00000240: f75d 953d 9cc3 f23e 92db 103e ef9e 44bd
00000250: 5a27 01be a0e5 323e fd51 453e f5c6 1b3e
00000260: 35bc f9bd fe52 d8bd 9d44 abbd 9a1a 613c
00000270: 822c bebd 45d9 463e c7c0 a6bd b061 823d
00000280: c090 d23d 4ad5 55be 662f d73d 4f42 e5bd
00000290: 5ed4 0fbe 442d 55bd 77b8 463a 023b 1dba
000002a0: edcf 6b3e c5bd 7f3e 044a 9b3e d0c3 303e
000002b0: dcb8 a43e 4c04 e73d f7b7 603e 9e9f b23d
000002c0: 299c b6be 6c0d e6bb 020f f53d c393 93be
000002d0: f7d4 b83e dc51 1dbe 11ce 16bf 8bab 5cbc
000002e0: 6160 0f3e 1a86 5a3d 4c9b 2fbe b994 043e
000002f0: 593c 133f e4bb 153e 05be 84be 3af5 333e
00000300: 7a9d 733d 8b48 c3be dd5e 99be 2c64 013e
00000310: fb53 bdbe 905b bc3d e3e4 ad3e bf76 723c
00000320: b296 263d 0baf 0cbf 264a 32be 9b08 2c3d
00000330: 1fd4 48bd 2952 4fbc 0072 9c3d fd6b 343e
00000340: 54ee 823e b977 003e 2035 5bbd 205b b73d
00000350: 4069 3d3e abfb 85bd a5e3 d0bd bd9f 353e
00000360: 770c 723e 416c 433e 2988 ea3b 08c3 2abd
00000370: b983 463e 55b3 843e 392c 76be bafb c7be
00000380: ed4f 263e 0710 923e 69a5 5e3e 37de 3d3e
00000390: cfa6 89bd 4f72 1cbe a5fc 513d e7f3 8fbd
000003a0: cea8 8b3d 469e c4bc f56a 893e 9d76 6dbd
000003b0: 8421 3dbe 2b72 a8bd bd98 113e 2da8 9a3d
000003c0: ce10 85be f99a 363e 6000 85bd ceca 133e
000003d0: 24e0 a83e adbd 733e fdf6 4b3e 0f90 643e
000003e0: ae35 323d 2dfe 24be 5397 efbe 2bf3 183e
000003f0: e6b6 c8be 609c 7c3e 59eb 443e 2448 193e

adv_fc2.bias f4 [4]
0.11709191 0.031965323 0.07137985 0.07109569
00000000: e2cd ef3d 12ee 023d 992f 923d 9e9a 913d
