Udacity/Collaboration_and_Competition/PPOPolicycheckpoint.pth (torch_old, 5440 bytes, 7 tensors)

std f4 [2]
00000000: 3c87 ecbf 4643 98bf
-1.847877 -1.189553

fc1.weight f4 [22, 24]
00000000: f370 17be 8170 1cbd 0d0b 44be 1074 753d
00000010: d0e8 d13e 0606 ac3e 0ed0 bfbe 286c ab3d
00000020: 75ea 2ebe a6e9 8fbe 3ad2 1e3d a783 b1bd
00000030: f755 213e cb70 063e 0403 fcbe bb69 ab3e
00000040: 9798 363e b31f 40be a5e9 58be 2ae0 6e3d
00000050: 12dc 2f3d 2c80 613e 4a7d ca3d 464f 19be
00000060: 9238 8d3d ead0 263e 305e 11be 4e89 db3d
00000070: 14b8 d23e 38da 013e 601f 5c3e 6238 a6be
00000080: 1409 ed3e 6623 8b3e 677b 1c3e 8888 16bd
00000090: ab32 00bd 5e43 803d beed b8bd 6282 03be
000000a0: 1886 bdbe 132a 32be 9210 c5be d366 1dbe
000000b0: 06fb 22bd 202e 243d 67b9 a1bd 60d6 3abe
000000c0: c7de f4bb a1f5 273e 3afc d4bc f629 84bd
000000d0: 1756 cebd b3c2 75be fe5b 053e 8d7c 3ebe
000000e0: e6ff 3a3e 6cd4 e8bd 8ef7 d73d 1d22 6b3e
000000f0: 5c6c 26bf 20ea cbbd d0cb 523b 91d8 a1bd
00000100: 5faa d63e b3b5 f1bd 6822 743d a566 1c3d
00000110: c0e7 383d 00c4 dd3e 06f7 30be 6f4c 293e
00000120: 1305 0ebe ccdb 443c 6309 f93d 4d9f a43e
00000130: bc76 0abe 7069 3f3d 985e 9fbb 401c 93be
00000140: 4daf 2e3d 077a adbe 24e7 abbe 555d d6be
00000150: 43b2 65be 39bd c5bd 92c2 b6be c5f3 ffbe
00000160: a2b9 abbd f7d3 673e cdd6 28bd 48d6 fcbd
00000170: bf34 50be 4cc0 12be 7a75 b1bd 7f4d 25bd
00000180: 2b7d f93e 91cb 58bd d247 023e 840d b4be
00000190: 1410 f1bd d525 25be 79aa 71be c7a1 dabd
000001a0: ddf1 1dbe 16d5 823c 51c8 d0bd b415 733e
000001b0: e93b 7ebe 6262 09be 02e9 86ba 4151 bf3b
000001c0: 9a8e 253d 6160 b93d da05 a3be 1f42 c53e
000001d0: 74df 00bf 1db7 24be 4a62 8d3d 032d e03e
000001e0: 92a1 183e b2dc 983d a9b1 01be 87a8 c9bc
000001f0: abdd 58be 2958 b0bd 5137 e8bd e69a a53d
00000200: 0fd2 82bd 0c02 833e f617 ddbe 03e8 4dbd
00000210: 83f3 273c 80ae b43e 10df a8be d376 21be
00000220: e3a3 1d3e 34d6 9cbe 2d36 cd3d 3e49 e63d
00000230: 9397 803e 7c08 de3c 6032 363e 2982 c9be
00000240: f054 61be a8c2 cc3c c49f 6e3e 973e fcbd
00000250: 12f8 6a3e f6b7 59bd 3a44 343e 2114 533e
00000260: 5c6d 2a3d 62d2 dbbd 2ab0 51be 0b23 033f
00000270: 0560 d8bd 7da9 b63e 4ebe b9bd 4ea3 7a3e
00000280: f073 283e 7773 9bbe 78ae 8a3d 2b13 90be
00000290: f3fc 1cbe b3b4 13be 105c 8b3e 5722 a73e
000002a0: cee3 af3e 06dc 603c ef76 153e e675 febd
000002b0: 29c9 3dbe d160 4b3e f4f4 043f ad58 59be
000002c0: f5d7 51be 662c b2be b422 ce3e b641 26be
000002d0: bfa6 93bd 7b9d c53c 4f10 85bd 5c78 ac3d
000002e0: cebd 993e 3437 61be b711 84bd 5fe4 1ebe
000002f0: 9ae0 b0be 4e5a 5b3e 4317 66bd ca0f eabc
00000300: 1d46 983c 8116 e5be a731 a2bd 9202 5f3e
00000310: 83ce 2cbe 30a4 b73e 39ad 94be 81ee 27bd
00000320: ec26 5dbe 32e2 2d3e 2a03 1ebe 84ee b8bd
00000330: f536 d0be 9fb5 cc3c 4f12 c03c 39bb 83bd
00000340: 0693 dcbd a59f 6ebe 0c17 edbd 4afc f4be
00000350: f714 adbe 693a e93e 1de3 8a3d 25fe 46be
00000360: b75e dabe babe e33e c6a0 553e 3b40 34bd
00000370: 3591 e3bd b46f 9ebe e928 5cbe 829d 72be
00000380: 4e8a afbe 0fa1 a93e 51dc 2c3e c58e ebbe
00000390: 61cd 8a3d f6b4 363a b058 c6bd 5eb6 03be
000003a0: 2712 c6bd b4a7 0d3e a7ec f3be 85dc efbd
000003b0: 663f 3bbd 3434 1bbe 9851 07be dc87 3f3c
000003c0: d8b4 323e f2b8 543e 97b0 1bbf 0182 b93d
000003d0: b6fa 09be 750f 50be 981c ffbd 5330 753e
000003e0: 29b5 143e 2ae5 863d 2eb4 01be 64cc 39bd
000003f0: 8ed7 083e 730a 9cbe 5fd8 ffbd aeea b53d
-0.1478918 -0.03819323 -0.1914484 0.05992514 0.40997934 0.33598346 -0.3746342 0.083702385
-0.17081626 -0.28107947 0.038774706 -0.08667689 0.15755449 0.13128965 -0.4922105 0.33479103
0.17831646 -0.18762092 -0.21182878 0.05831925 0.042934485 0.2202155 0.09887178 -0.14971647
0.068955556 0.16290632 -0.14196086 0.10719548 0.41156065 0.126809 0.21496344 -0.32464892
0.4629599 0.27175444 0.1528145 -0.0367513 -0.03129832 0.06262849 -0.09029721 -0.12842706
-0.37016368 -0.17398863 -0.38489205 -0.15371256 -0.039790176 0.04008305 -0.07896691 -0.1824584
-0.007472846 0.16402294 -0.025999177 -0.06453316 -0.10075014 -0.24000053 0.13023373 -0.186022
0.1826168 -0.11368641 0.10545264 0.22962232 -0.65009093 -0.09956765 0.0032164939 -0.07902635
0.41926858 -0.118022345 0.059603125 0.038183827 0.04514289 0.433136 -0.17281732 0.16533063
-0.13869123 0.012015294 0.121599935 0.32152787 -0.13521856 0.046731412 -0.0048635714 -0.2873249
0.04264765 -0.33882162 -0.33574784 -0.41868082 -0.22431283 -0.09655232 -0.3569532 -0.4999067
-0.08385016 0.22639452 -0.041220475 -0.123455584 -0.20332621 -0.14331168 -0.08664985 -0.04035711
0.48728308 -0.05292851 0.1272271 -0.35166562 -0.11770645 -0.16127713 -0.23600186 -0.10675388
-0.15424295 0.015970748 -0.10194457 0.23738748 -0.24827541 -0.13416436 -0.001029283 0.0058385436
0.0404192 0.09051586 -0.31840402 0.3852701 -0.5034096 -0.16085477 0.06903513 0.4378434
0.14905384 0.07463969 -0.12665428 -0.024616493 -0.2117831 -0.08610565 -0.11338676 0.08086185
-0.06387722 0.255875 -0.43182343 -0.05027009 0.010250929 0.35289383 -0.32982683 -0.15767984
0.15394549 -0.30632174 0.10020099 0.112444386 0.25115642 0.027103655 0.17792654 -0.39357117
-0.22005057 0.024995163 0.23303133 -0.123166256 0.22946194 -0.053153954 0.17604151 0.20613147
0.0416082 -0.10733487 -0.20477358 0.51225346 -0.10565189 0.35676184 -0.09069501 0.24476358
0.16450477 -0.3036153 0.067715585 -0.28139624 -0.15330867 -0.144244 0.27218676 0.32643387
0.3435349 0.013724333 0.14596151 -0.12424831 -0.18533768 0.19861151 0.5193627 -0.21225233
-0.20492537 -0.34799498 0.4026085 -0.16236004 -0.07209539 0.024122944 -0.06497251 0.08421394
0.30027622 -0.21993715 -0.06448691 -0.15516804 -0.34546357 0.21421167 -0.056174528 -0.028571982
0.01858812 -0.44743732 -0.07919627 0.21778324 -0.16875653 0.35867453 -0.29038408 -0.04099894
-0.21596879 0.16980818 -0.15430894 -0.09029868 -0.4066693 0.024988947 0.02344623 -0.06432194
-0.1077023 -0.23303087 -0.115766615 -0.4784873 -0.33805057 0.45552376 0.067816 -0.19432886
-0.42650387 0.4448145 0.20862111 -0.044006567 -0.111116804 -0.30944598 -0.21499981 -0.23692897
-0.34285206 0.3313069 0.16880919 -0.46007362 0.06777454 0.00069697143 -0.096848845 -0.12862536
-0.09671431 0.13833505 -0.4764149 -0.11711983 -0.04571476 -0.15156633 -0.1321472 0.011690106
0.17451799 0.20773676 -0.6081633 0.090579994 -0.13474545 -0.20318396 -0.12456626 0.23944215
0.14522232 0.06586678 -0.1266639 -0.045360938 0.13363478 -0.30476722 -0.124924414 0.08882652

fc1.bias f4 [22]
00000000: a475 ce3d 7e3e 9e3d ae4c c4bd 0d58 87bd
00000010: ccf2 2b3d 0314 c8bc 6e6e 133d c84f 0e3d
00000020: 841a 823c 051b 5fbd 3346 b4bc b32f d63b
00000030: 7726 cb3c a20c 3cbd dbb5 15bd 58eb f33d
00000040: af45 c9bb 96d1 b93d c678 9d3c 4829 06bd
00000050: 6b38 11bc aa55 d6bc
0.10081032 0.07726763 -0.09584938 -0.06608591 0.041979596 -0.024423605 0.035993986 0.034744054
0.015881784 -0.054469127 -0.02200613 0.006536448 0.024798615 -0.045910485 -0.036550384 0.11910123
-0.00614234 0.090731785 0.019222628 -0.032754213 -0.008863549 -0.026163895

fc2.weight f4 [22, 22]
00000000: 7f2b 503e 47cd bebc 5bd0 ee3d 780b 03be
00000010: a4c6 9d3e bb07 d63d 8fb7 243e 7f05 1a3e
00000020: 5cb4 b6bd 0f73 a0be 45b4 c9be 0b81 0d3e
00000030: 5c42 db3d 2fb7 0ebe 6e46 043e 58c4 c7be
00000040: 7404 acbc 1dc4 0ebf 88df a83e d307 5d3c
00000050: d58d 9ebe e192 c8be f85d 973d df0e 283e
00000060: 54c8 163f 06d8 b23e 203d 303e 6bf9 bbbd
00000070: 630d 373d e6fa 1e3e d363 00be 6d14 1bbc
00000080: 6e88 55bd fafa 0e3f 0e70 803e 881f 3b3e
00000090: 29f2 db3d bc9d a43e e819 683b 803f 96be
000000a0: efed af3e 307b 96bc 6411 a73d 7bad 93be
000000b0: d66f 443e 32fc 1e3e 273a 293e e74d 9c3d
000000c0: ce21 e53e 23e5 0d3d f5d8 a63e 7928 d13c
000000d0: e596 50be 0576 b0bc b754 8abc 4362 abbe
000000e0: f6b4 963e 1dea 003e aa5d b63d c9da ce3d
000000f0: c3d8 01be 83b6 cabd 5b96 8a3e f6e3 26bd
00000100: 4388 0f3f 06bd 843d b277 683e da78 ff3e
00000110: 19ac d63d 12c3 33be d321 17bc 19ae acbd
00000120: 2496 72be c9b3 48bd 7242 a73c eeac a03e
00000130: e4b4 323d c7f2 4e3d d610 8a3e 2848 55be
00000140: 39e4 3abe b1c0 cdbe 2122 4fbe 9941 a83c
00000150: 9610 ecbd c446 623e f68f a2bd 8308 aa3e
00000160: 11d1 ee3e b3b9 f23d c285 893e 360b a23d
00000170: 2461 693d bc88 00bf c2e8 ae3e 7ab0 4abe
00000180: a2ee bebd 07cf c93d 6e70 ee3c 387c 84bc
00000190: 1084 123e 6c9b 3ebb e175 903e cc27 623d
000001a0: 171c 53be 7d58 103e f003 983e c15c 2ebe
000001b0: 52a5 8dbe 3356 0dbf 04f2 03bf b1ba 8c3e
000001c0: 8760 813e 3216 cfbd 8334 27be c92d d8bc
000001d0: dddc c43e 4cdd 2cbe f333 813e 67f7 34be
000001e0: c11c f83d a30f 1cbe 7a64 8e3e 8754 6cbe
000001f0: 910a 37be 9bc9 bf3d 631d 263e d454 06be
00000200: 55d1 d4be 9d9c ca3c d9fa 513c a5a4 1fbe
00000210: ec98 4d3d e21d 703e 021f 13bd a6df 25bf
00000220: 063d 4a3d 3f2a ffbd aab1 11be 3adf ee3b
00000230: cd88 0fbe 9484 b8be 00b2 203d 8272 983e
00000240: 185b d1bc 5b6e 31bd 61e0 613e 51d3 0bbe
00000250: 7e6e 6b3d bb6f db3d 3a04 04be 3ec6 afbe
00000260: 75b6 ae3e 5918 52be 1811 59bd 1cb8 6f3e
00000270: 58dd 70bd fa3c c7bc c55f 8abe bf61 5f3e
00000280: 7621 eb3d ff02 093e ab47 503c e9c3 25be
00000290: b01a ffbd d8cc 43bd 6ed8 e93e 2e11 623e
000002a0: acf2 423c ebf0 603e e640 14bf 773b e73d
000002b0: 8490 81bd 0225 bb3e 8c65 f3bd 2bb8 14bf
000002c0: 5e36 a93d 4dfd 2d3e 32a3 943d 429f 9bbd
000002d0: 7d77 0bbf 63d5 2fbd ba27 0fbe 7591 41bd
000002e0: bdf7 b5be ea9e 94be 8e91 63be b618 9ebe
000002f0: 4c7c 9f3e b387 643d d07e 683e 3ea0 fc3d
00000300: 2c8c c53e 0743 5bbc b275 f83e 5829 1b3e
00000310: 032e b4bd de52 5a3c 98ab 98be bdbe a5be
00000320: d265 d13d bdf6 60bd 18d2 ec3e 705f 6bbe
00000330: 6eed 80bc 36de 9abe cc2a 37be e8be 463d
00000340: 7356 e1be e8bd 003c de22 a23e 4098 10bd
00000350: 5f30 213e f77e e7bb d866 99be 4f49 1a3e
00000360: fc7b 1d3e 7efe 873e f634 a4bd 4b5d b0be
00000370: c2f1 84be 733b 953e 21aa d73d 7af0 84bc
00000380: ce92 89be cfe6 453e a35c 213e 2cd9 ef3e
00000390: 1e4a 123e 4475 143e 4200 31be bbc8 82be
000003a0: a656 873d df4d 9abd 88f7 3d3f 8902 5fbe
000003b0: 98d4 773d 79b1 463e ff99 b7be b85b 09be
000003c0: 3692 fb3c ce30 133e 9e7b 3b3d 952a 133e
000003d0: 6c91 94bd 8db9 32be 031f 7f3d 2fbb 1d3e
000003e0: 62dd 653e c49a 18be 9176 ebbb 4ef9 b73e
000003f0: 78b0 f4be 1aee 993e a135 e0be 2565 33be
0.20329092 -0.023291243 0.116608344 -0.12797344 0.30815613 0.10450693 0.16085647 0.15041159
-0.089211196 -0.31337783 -0.39395347 0.13818757 0.107060164 -0.13937066 0.12917492 -0.39016986
-0.020998217 -0.55767995 0.3298304 0.013490635 -0.30967584 -0.3917456 0.0739097 0.16411923
0.58899426 0.34930438 0.17210817 -0.09178432 0.0446905 0.15525398 -0.1253808 -0.009465319
-0.052132063 0.5585171 0.2508549 0.18273747 0.10739548 0.32151592 0.0035415832 -0.29345322
0.34361216 -0.018369287 0.08157614 -0.28843293 0.19183287 0.15525892 0.1652609 0.07632046
0.44752353 0.03464235 0.325874 0.025531994 -0.20370062 -0.021540651 -0.016886098 -0.33473405
0.29434937 0.12589307 0.08904584 0.10100324 -0.12680344 -0.098980926 0.27067837 -0.040744744
0.56067294 0.06481366 0.2270191 0.4989689 0.10482044 -0.17554882 -0.009224373 -0.08431644
-0.23690087 -0.04899958 0.020417426 0.31381935 0.043629542 0.0505245 0.2696597 -0.20828307
-0.18251123 -0.40186074 -0.20227863 0.020539092 -0.11526601 0.22097307 -0.079376146 0.3320962
0.4664388 0.118518256 0.26859862 0.079122946 0.056977406 -0.5020864 0.34161955 -0.19793883
-0.09322859 0.098539405 0.029106345 -0.016172513 0.1430819 -0.0029084338 0.28214934 0.055213735
-0.20616184 0.14096256 0.29690504 -0.1702757 -0.27665192 -0.55209655 -0.5154116 0.27486184
0.25268957 -0.10111655 -0.16328625 -0.02638902 0.38449755 -0.16881293 0.25234947 -0.17672502
0.12114859 -0.1524034 0.27811033 -0.2307912 -0.17875125 0.09364625 0.16222148 -0.13118297
-0.41565958 0.024732882 0.012816154 -0.1559015 0.050194666 0.234489 -0.035918243 -0.64794385
0.049374603 -0.1245923 -0.1422793 0.0072897943 -0.14017029 -0.3603865 0.039232254 0.29774863
-0.025556132 -0.043318134 0.2205825 -0.1365483 0.05747842 0.1071467 -0.12892237 -0.34330934
0.3412358 -0.205171 -0.052994817 0.23410076 -0.05880484 -0.024321068 -0.2702619 0.21814631
0.114809915 0.13380049 0.0127123995 -0.16188015 -0.12456262 -0.047802776 0.45672935 0.22076866
0.011898678 0.21966903 -0.5791153 0.11290639 -0.06326392 0.36551672 -0.11884603 -0.5809352
0.08262323 0.16991158 0.072576895 -0.075987354 -0.544792 -0.04292811 -0.13979998 -0.04725786
-0.35540572 -0.29027492 -0.22223493 -0.30878228 0.31149518 0.055793475 0.22704625 0.12335251
0.38583505 -0.01338268 0.48527294 0.1515249 -0.087978385 0.013325421 -0.29818416 -0.32372084
0.10224499 -0.054922808 0.4625404 -0.22985625 -0.015738215 -0.30247658 -0.1788742 0.048521906
-0.44011268 0.007857777 0.31667227 -0.035301447 0.15741108 -0.007064696 -0.29961276 0.15067028
0.15379328 0.2656135 -0.08017914 -0.34446177 -0.25965697 0.2914692 0.105304964 -0.01622795
-0.26869816 0.19326328 0.15757994 0.46845376 0.14286086 0.14497858 -0.17285255 -0.2554377
0.06608324 -0.07534384 0.7420583 -0.21778311 0.06050548 0.19403638 -0.35859677 -0.13413894
0.030709367 0.14374086 0.045772187 0.14371713 -0.072542995 -0.17453595 0.062285434 0.15403436
0.22447732 -0.14902788 -0.007185765 0.35932392 -0.47790885 0.3006447 -0.43790916 -0.17519052

fc2.bias f4 [22]
00000000: ce69 d83c f18b b0bd e37f f63d 20b7 583d
00000010: 76e6 933d 2f7f 853d 141a b33b aa74 03bd
00000020: b2da 9dbc a94b 92bb 180f f03c 4d3a 7bbd
00000030: 85d0 90bc 694b 9f3d cd45 41bb 9fa5 833d
00000040: 6cc9 473b 2460 edbc ab09 8f3d b49e f2bd
00000050: bf60 1a3d ca78 dfbd
0.02641764 -0.08620442 0.12036111 0.052909017 0.07221691 0.06518399 0.0054657552 -0.03209368
-0.019269321 -0.004464586 0.029304072 -0.061334897 -0.017677555 0.07778055 -0.0029491067 0.06428074
0.0030485047 -0.028976507 0.06984266 -0.118466765 0.03768992 -0.109117106

fc3_mean.weight f4 [2, 22]
00000000: 232a 1dbe 4ef0 3dbe 87a1 24bd f5a5 613c
00000010: f3ae 4dbe aea0 253d f70f 003d f602 c9bd
00000020: 1a8b 55bd 4d15 f9bd e156 d83d d792 273e
00000030: faee 51bd 7d61 3b3b bfcd 98bd fc62 983d
00000040: 958f 183e 39dd dcbd d9a6 103c bc50 82bd
00000050: fd2c 883d 4830 663d af1d 083e 2938 cf3c
00000060: 3082 bf3c 7b92 a53c 9604 ab3a a926 8abd
00000070: 9d5a ec3a e8d2 0ebd 2f0b a1bd 095c fb3c
00000080: 31f4 5c3d 3a14 a93d 6408 a03c 1d0a bdbd
00000090: 93a9 ebb9 7c0b 8ebc 18fc 08bd ef48 813d
000000a0: 2abf c3bd f4e9 5d3d 942a f53c a9e2 a03d
-0.15348105 -0.185487 -0.040193107 0.013772477 -0.20086269 0.04043644 0.031265225 -0.09815018
-0.05213461 -0.12162266 0.10563446 0.16364609 -0.051253296 0.0028592043 -0.07461118 0.07440755
0.14898522 -0.107843824 0.008828842 -0.06363055 0.06649206 0.05619839 0.13292573 0.025295334
0.023377508 0.020211449 0.0013047631 -0.06745655 0.0018032376 -0.034869105 -0.07863461 0.030683534
0.053943817 0.08255811 0.019535251 -0.092304446 -0.00044949036 -0.01733946 -0.03344354 0.06312739
-0.09557946 0.054178193 0.02992753 0.07855732

fc3_mean.bias f4 [2]
00000000: ec66 173c 2e35 3abd
0.009240847 -0.045460872
