Udacity/Collaboration_and_Competition/PPOValuecheckpoint.pth (torch_old, 28033 bytes, 8 tensors)

fc1.weight f4 [46, 48]
-0.21005774 0.08280914 -0.2090578 0.011389557 0.16802603 0.098313905 -0.009956252 -0.32851136
-0.04800884 0.019844424 0.10011571 -0.14824475 0.10303129 0.11990705 -0.07140029 -0.20230521
-0.15115926 0.10547383 -0.26684147 -0.058573738 -0.30662322 0.12072957 0.18666713 0.03119534
0.23829664 0.081290245 -0.10888495 0.027797375 0.18704525 -0.0778759 0.070486024 -0.10682627
-0.27840713 0.02005546 0.07635387 0.07725699 0.08339873 0.20908213 0.10302625 0.007358351
0.049989853 0.13348143 -0.10830447 -0.24718249 0.06664758 -0.10705247 -0.074507646 -0.03777467
-0.24333477 -0.15913758 0.13955627 0.0034716963 0.15562607 -0.113875784 -0.05418656 0.18474282
-0.102530554 -0.038390525 -0.22731508 -0.21888998 -0.025804088 0.15303048 0.15745823 0.122282326
-0.064064205 -0.16819644 -0.063612975 0.30465463 -0.2850129 -0.0043883324 0.020905359 0.05422209
0.04001479 0.17690611 0.19598088 0.12153307 -0.25404626 0.097511195 0.0029394757 0.22528529
0.008796927 -0.028843535 0.2828339 0.085717976 -0.024794348 0.052450754 -0.26777694 -0.07800193
0.075469404 -0.081724435 -0.028512947 -0.036908 0.025339492 -0.11789127 -0.13206857 0.07491416
0.04176061 0.035404198 -0.0063999174 0.15161116 0.17259336 -0.018602477 -0.14508115 -0.124877915
-0.15094648 0.10079684 -0.065625586 0.24289855 0.18690884 -0.059322953 0.17139402 0.14988202
-0.050895404 -0.040577784 -0.16538441 0.010491356 0.026819173 -0.0515192 -0.2649917 -0.10163204
0.06127899 0.05301502 0.22581476 -0.15746285 0.3299571 0.12990579 -0.25047824 0.23490512
-0.1724984 -0.011531276 0.22165649 -0.09304727 0.07747485 0.063930854 0.178717 0.008033635
-0.08779804 -0.14204682 -0.03989928 0.21783824 0.17044562 0.1598837 0.048843585 -0.123722725
0.012397176 -0.009245903 -0.17695896 -0.16181915 -0.075445205 0.09830531 -0.117626235 -0.023573598
0.07640103 -0.11726019 0.39931396 -0.0741563 -0.0033609164 -0.007768508 0.15130213 0.10856726
0.083208516 0.007916215 0.19492003 -0.16076872 -0.019800179 -0.1054071 -0.02894815 -0.017025666
0.2854934 -0.2679691 0.361376 0.04855334 -0.16887419 0.050823156 -0.1367255 0.06655126
-0.09516642 -0.14488545 0.13835622 0.044118825 -0.06009813 -0.16780563 -0.11582839 0.11048079
0.013073902 0.21255001 -0.16210218 -0.07528878 0.20236346 -0.107277885 0.17274766 0.03396465
-0.02670996 0.040372305 0.03012783 -0.09230294 -0.05205661 0.24701187 -0.22664931 0.0905027
0.19456829 -0.045351226 0.22168624 -0.080924794 -0.29929745 0.090048544 0.10270662 0.24042138
0.045182016 -0.01707766 -0.19140522 -0.14872997 0.08984752 0.10507042 -0.057522945 -0.048487302
-0.18407421 0.3170192 0.08052997 0.07354033 0.2018045 -0.08516411 0.0905673 -0.12864143
0.03317059 -0.23509075 0.017826093 -0.124581665 -0.10554295 0.2767659 -0.0084005315 0.04160224
0.27317825 -0.16067027 -0.030110922 0.13491096 -0.023601174 -0.12109648 -0.0066199247 0.043227322
-0.17281821 -0.17181267 -0.0017454457 0.11138236 -0.03680838 -0.13689788 -0.08033219 -0.07581261
0.063875824 0.10078407 0.19371425 0.07244319 0.22834896 -0.015547248 -0.15735573 -0.021146728
00000000: 6019 57be d797 a93d 3f13 56be 449b 3a3c
00000010: 040f 2c3e cd58 c93d 8c1f 23bc a432 a8be
00000020: eba4 44bd c690 a23c 7709 cd3d 79cd 17be
00000030: 1202 d33d d491 f53d 513a 92bd 1929 4fbe
00000040: 7ec9 1abe aa02 d83d 729f 88be 04eb 6fbd
00000050: b8fd 9cbe 1141 f73d ab25 3f3e 5f8d ff3c
00000060: 0904 743e 807b a63d 13ff debd 52b7 e33c
00000070: ca88 3f3e 667d 9fbd fa5a 903d bbc7 dabd
00000080: 618b 8ebe 594b a43c 6b5f 9c3d ea38 9e3d
00000090: f4cc aa3d a019 563e 6dff d23d 521e f13b
000000a0: 29c2 4c3d 5baf 083e bcce ddbd 681d 7dbe
000000b0: 877e 883d 533e dbbd 7797 98bd 9db9 1abd
000000c0: c02c 79be f6f4 22be d7e7 0e3e 6685 633b
000000d0: 715c 1f3e b537 e9bd baf2 5dbd 392d 3d3e
000000e0: 8afb d1bd 623f 1dbd 49c5 68be b224 60be
000000f0: 1863 d3bc 06b4 1c3e bb3c 213e 286f fa3d
00000100: 1834 83bd b03b 2cbe 8547 82bd b1fb 9b3e
00000110: 36ed 91be 00cc 8fbb b741 ab3c fb17 5e3d
00000120: 8ce6 233d e026 353e 36af 483e 55e6 f83d
00000130: 5a12 82be f3b3 c73d 38a4 403b 30b1 663e
00000140: fc20 103c 4749 ecbc 9bcf 903e e88c af3d
00000150: 841d cbbc 9ad6 563d 0f1a 89be 7abf 9fbd
00000160: b48f 9a3d 245f a7bd fc93 e9bc d82c 17bd
00000170: c494 cf3c fa70 f1bd fc3c 07be 986c 993d
00000180: 2c0d 2b3d fe03 113d 66b6 d1bb f53f 1b3e
00000190: 50bc 303e 3964 98bc 2790 14be febf ffbd
000001a0: b791 1abe 936e ce3d b566 86bd 66ba 783e
000001b0: 0865 3f3e a0fc 72bd ea81 2f3e ac7a 193e
000001c0: b377 50bd e434 26bd 885a 29be f0e3 2b3c
000001d0: e2b3 db3c cc05 53bd feac 87be 7624 d0bd
000001e0: aeff 7a3d 4726 593d fc3b 673e f13d 21be
000001f0: 23f0 a83e 0606 053e af3e 80be f88a 703e
00000200: 6ca3 30be aded 3cbc ebf9 623e 918f bebd
00000210: 22ab 9e3d 2eee 823d 9701 373e 829f 033c
00000220: 75cf b3bd b974 11be 6d6d 23bd fd10 5f3e
00000230: 4c89 2e3e 8db8 233e 3610 483d 5762 fdbd
00000240: 861d 4b3c 217c 17bc bb34 35be ebb3 25be
00000250: 0483 9abd 4b54 c93d 06e6 f0bd 6b1d c1bc
00000260: 2578 9c3d 1c26 f0bd e172 cc3e 42df 97bd
00000270: d242 5cbb f88e febb f2ee 1a3e 8358 de3d
00000280: 3a69 aa3d 03b3 013c 1e99 473e 8ea0 24be
00000290: fc33 a2bc addf d7bd ac24 edbc 6979 8bbc
000002a0: 312c 923e 3f33 89be 4606 b93e dedf 463d
000002b0: 5bed 2cbe f12b 503d c501 0cbe 074c 883d
000002c0: 9de6 c2bd da5c 14be 41ad 0d3e f1b5 343d
000002d0: 7529 76bd 3dd5 2bbe 6f37 edbd c143 e23d
000002e0: eb33 563c b6a6 593e 1dfe 25be 0131 9abd
000002f0: 5e38 4f3e 82b4 dbbd c3e4 303e 841e 0b3d
00000300: d9ce dabc 6e5d 253d a4ce f63c 5309 bdbd
00000310: 5039 55bd aef0 7c3e c216 68be 7b59 b93d
00000320: e93c 473e 35c2 39bd b801 633e e6bb a5bd
00000330: 843d 99be 5f6b b83d d957 d23d 0631 763e
00000340: c710 393d 73e6 8bbc bbff 43be ab4c 18be
00000350: fa01 b83d 292f d73d 2e9d 6bbd 9f9a 46bd
00000360: f37d 3cbe 5750 a23e e6ec a43d 509c 963d
00000370: d7a5 4e3e 856a aebd 597b b93d 94ba 03be
00000380: e2dd 073d a1bb 70be 0708 923c ac24 ffbd
00000390: e726 d8bd 43b4 8d3e 62a2 09bc 1c67 2a3d
000003a0: 05de 8b3e bf86 24be 2eab f6bc 1926 0a3e
000003b0: 4057 c1bc 6e01 f8bd f4eb d8bb 220f 313d
000003c0: 42f7 30be a9ef 2fbe 70c7 e4ba 6f1c e43d
000003d0: 62c4 16bd f52e 0cbe 3485 a4bd a443 9bbd
000003e0: 54d1 823d e167 ce3d 075d 463e 185d 943d
000003f0: 4fd4 693e e2b9 7ebc dc21 21be e73b adbc

fc1.bias f4 [46]
0.0 0.0 0.0 0.0 0.0 0.0 0.0 0.0
0.0 0.0 0.0 0.0 0.0 0.0 0.0 0.0
0.0 0.0 0.0 0.0 0.0 0.0 0.0 0.0
0.0 0.0 0.0 0.0 0.0 0.0 0.0 0.0
0.0 0.0 0.0 0.0 0.0 0.0 0.0 0.0
0.0 0.0 0.0 0.0 0.0 0.0
00000000: 0000 0000 0000 0000 0000 0000 0000 0000
00000010: 0000 0000 0000 0000 0000 0000 0000 0000
00000020: 0000 0000 0000 0000 0000 0000 0000 0000
00000030: 0000 0000 0000 0000 0000 0000 0000 0000
00000040: 0000 0000 0000 0000 0000 0000 0000 0000
00000050: 0000 0000 0000 0000 0000 0000 0000 0000
00000060: 0000 0000 0000 0000 0000 0000 0000 0000
00000070: 0000 0000 0000 0000 0000 0000 0000 0000
00000080: 0000 0000 0000 0000 0000 0000 0000 0000
00000090: 0000 0000 0000 0000 0000 0000 0000 0000
000000a0: 0000 0000 0000 0000 0000 0000 0000 0000
000000b0: 0000 0000 0000 0000

fc2.weight f4 [46, 46]
0.07745755 -0.10013743 -0.19255422 0.06280384 0.28739995 -0.05821938 -0.018718885 0.07768446
-0.047168616 -0.052549016 -0.12954552 -0.08124134 -0.26017606 -0.043475617 0.15897886 -0.22468273
-0.14328353 0.022567037 0.122353695 -0.052501455 0.10954508 0.045482315 -0.0045598894 0.3068461
0.09023515 -0.15646057 0.050860874 -0.12895359 -0.04768037 -0.3155917 -0.1402587 -0.042101894
-0.09925803 -0.107144415 -0.04867462 -0.41370293 0.0048884335 -0.109434895 0.0051140315 -0.15713072
0.13603988 0.069095016 0.14146955 -0.2705936 0.07289685 -0.036179386 -0.24354035 0.09592203
0.20567599 -0.15512735 0.013910182 -0.09084626 -0.060599793 -0.20037556 0.2257384 -0.064021535
-0.10403065 -0.17576201 -0.23379257 0.19330582 0.13767597 -0.21197121 -0.086900234 -0.16966106
0.016049597 -0.082541935 -0.017332956 -0.0567267 -0.02543588 -0.052825175 -0.056749858 0.14120117
-0.04177379 0.04884491 0.14558248 -0.07201867 -0.035325628 -0.08544752 -0.2871912 0.06289842
-0.118330605 0.10225075 0.10694689 -0.26634434 -0.11249766 0.03596142 0.26183635 -0.2057583
-0.2449288 0.16090125 0.14942746 0.14581974 0.14535965 0.07041573 0.036867633 0.42602822
0.17861757 0.04395643 -0.12861383 0.26796606 0.067829005 -0.3636055 -0.0109166335 0.08481848
-0.14050655 -0.09209063 0.018661806 -0.056712426 0.20340164 0.041647293 -0.03500005 0.1153788
0.10841222 0.1941391 0.144361 -0.0146250315 0.034844607 0.25946963 -0.1779826 0.0144041125
0.08448321 0.20444876 -0.040907502 0.042419974 0.08035575 0.048329387 0.15649188 -0.09459616
0.22224338 -0.14190598 0.015581185 0.07542771 -0.0454922 -0.003703217 -0.04748621 0.17443225
0.20790201 0.1276854 0.13057856 -0.102998585 -0.11945687 0.001305969 -0.08136661 -0.030774316
-0.06649561 0.22412401 -0.14477168 -0.059589747 0.036885396 -0.06496883 -0.1015161 -0.059479713
0.059089802 -0.14493921 -0.096019045 -0.09621414 -0.14335051 0.059345063 0.16648877 -0.39080083
0.14798103 -0.034993444 -0.08506739 0.067910716 -0.04363062 0.05143848 0.046125233 -0.12343863
0.13955995 0.04970228 -0.0689257 -0.10879071 0.10922067 0.13579127 0.34478444 0.38112232
0.0052219946 -0.2033132 0.14824525 -0.07304494 -0.28016597 0.034116905 -0.16723616 -0.195459
-0.35595173 -0.12536092 -0.22164863 0.05990412 0.009717539 0.10604992 -0.299915 -0.019793013
-0.120142974 -0.06070108 0.34872535 0.05945019 -0.0038243458 0.1084734 0.021131672 -0.058458462
-0.011104777 0.007469874 0.16612777 0.12261463 0.017532423 -0.02181739 0.082683556 0.16394904
0.07307001 0.26142898 0.043997735 0.18134992 -0.267042 0.06524262 -0.21556404 -0.12241939
-0.102372654 0.0026506074 0.033418164 0.14927472 -0.022425624 -0.15366738 -0.20475198 0.1131265
-0.051073737 0.008752564 0.046439506 -0.06851324 -0.19697447 -0.24571541 0.1653245 0.13232243
-0.0477439 -0.12504917 -0.046902463 0.046997406 -0.24294825 0.07158738 -0.049858484 -0.10959393
-0.004285941 -0.42218247 0.06288576 0.003150641 -0.1363789 0.023036685 -0.023897795 0.2571026
-0.113998204 -0.08717641 -0.20482554 -0.085018255 -0.03084298 -0.03156901 0.043247014 0.12186626
00000000: 10a2 9e3d da14 cdbd ef2c 45be 4d9f 803d
00000010: 1626 933e 7277 6ebd 5958 99bc 0819 9f3d
00000020: e133 41bd a33d 57bd 95a7 04be dc61 a6bd
00000030: cc35 85be 7d13 32bd 5bcb 223e 3b13 66be
00000040: ebb8 12be 82de b83c 9394 fa3d c40b 57bd
00000050: 2c59 e03d aa4b 3a3d 206b 95bb ef1a 9d3e
00000060: 35cd b83d 3337 20be 7e53 503d 690c 04be
00000070: 7e4c 43bd 3c95 a1be fa9f 0fbe 0973 2cbd
00000080: cb47 cbbd 886e dbbd 0a5f 47bd dfd0 d3be
00000090: 272f a03b 671f e0bd 9b93 a73b e0e6 20be
000000a0: 0a4e 0b3e b081 8d3d 65dd 103e 3f8b 8abe
000000b0: f24a 953d d630 14bd a462 79be c572 c43d
000000c0: ba9c 523e b4d9 1ebe 88e7 633c 9b0d babd
000000d0: 7d37 78bd 402f 4dbe f827 673e b91d 83bd
000000e0: 050e d5bd f5fa 33be 5267 6fbe f6f1 453e
000000f0: eefa 0c3e fb0e 59be c0f8 b1bd a1bb 2dbe
00000100: 727a 833c bf0b a9bd d8fd 8dbc 425a 68bd
00000110: e85e d0bc 365f 58bd 8a72 68bd 0a97 103e
00000120: fe1a 2bbd 9a11 483d 9313 153e 867e 93bd
00000130: 9bb1 10bd 1cff aebd ba0a 93be e3d0 803d
00000140: 5157 f2bd d768 d13d f906 db3d 495e 88be
00000150: 2c65 e6bd 484c 133d 6a0f 863e 4eb2 52be
00000160: 9ece 7abe 4cc3 243e 8303 193e c551 153e
00000170: 29d9 143e 1f36 903d 8402 173d 5f20 da3e
00000180: 86e7 363e a80b 343d 58b3 03be d932 893e
00000190: efe9 8a3d 802a babe aedb 32bc 50b5 ad3d
000001a0: f3e0 0fbe 039a bcbd a5e0 983c 4a4b 68bd
000001b0: 8548 503e 5a96 2a3d 365c 0fbd b84b ec3d
000001c0: 3a07 de3d 66cc 463e 5fd3 133e d49d 6fbc
000001d0: 38b9 0e3d 34d9 843e 1241 36be 3aff 6b3c
000001e0: 8905 ad3d 045b 513e a08e 27bd 91c0 2d3d
000001f0: 8e91 a43d 09f5 453d 683f 203e a2bb c1bd
00000200: c593 633e cd4f 11be 3a48 7f3c d879 9a3d
00000210: 0756 3abd acb1 72bb e680 42bd 5e9e 323e
00000220: 44e4 543e f6bf 023e 63b6 053e ecf0 d2bd
00000230: cea5 f4bd 0c2d ab3a 8aa3 a6bd 6b1a fcbc
00000240: da2e 88bd c480 653e 073f 14be 6114 74bd
00000250: 2415 173d 610e 85bd ace7 cfbd 00a1 73bd
00000260: 2608 723d f26a 14be a2a5 c4bd eb0b c5bd
00000270: 7aca 12be cf13 733d 087c 2a3e 0c17 c8be
00000280: 5788 173e 4955 0fbd d037 aebd c614 8b3d
00000290: 05b6 32bd 28b1 523d d0ed 3c3d 64cd fcbd
000002a0: cee8 0e3e 9e94 4b3d eb28 8dbd aacd debd
000002b0: 16af df3d de0c 0b3e 9687 b03e 7722 c33e
000002c0: 441d ab3b 5631 50be 9acd 173e 9698 95bd
000002d0: ea71 8fbe 2bbe 0b3d f53f 2bbe 6726 48be
000002e0: 4e3f b6be 9d5e 00be dcf7 62be 065e 753d
000002f0: 5036 1f3c b330 d93d 758e 99be f524 a2bc
00000300: 850d f6bd b2a1 78bd 218c b23e 0b82 733d
00000310: e0a1 7abb 4d27 de3d 541c ad3c 2472 6fbd
00000320: d0f0 35bc d8c5 f43b 661d 2a3e 611d fb3d
00000330: 28a0 8f3c 62ba b2bc ff55 a93d 42e2 273e
00000340: bba5 953d 05da 853e f836 343d cbb3 393e
00000350: bbb9 88be ec9d 853d d2bc 5cbe 04b7 fabd
00000360: c1a8 d1bd d0b5 2d3b 7ce1 083d 79db 183e
00000370: f1b5 b7bc fb5a 1dbe 81aa 51be deae e73d
00000380: b232 51bd ea66 0f3c 5a37 3e3d ab50 8cbd
00000390: adb3 49be d29c 7bbe d34a 293e 887f 073e
000003a0: 1c8f 43bd e40c 00be cc1c 40bd 5a80 403d
000003b0: 6dc7 78be 679c 923d 6938 4cbd c872 e0bd
000003c0: 1471 8cbb 4d28 d8be 40ca 803d fc7a 4e3b
000003d0: e9a6 0bbe 6eb7 bc3c 4fc5 c3bc f4a2 833e
000003e0: e477 e9bd 8c89 b2bd c9bd 51be 0d1e aebd
000003f0: 6baa fcbc 824e 01bd c823 313d 0595 f93d

fc2.bias f4 [46]
0.0 0.0 0.0 0.0 0.0 0.0 0.0 0.0
0.0 0.0 0.0 0.0 0.0 0.0 0.0 0.0
0.0 0.0 0.0 0.0 0.0 0.0 0.0 0.0
0.0 0.0 0.0 0.0 0.0 0.0 0.0 0.0
0.0 0.0 0.0 0.0 0.0 0.0 0.0 0.0
0.0 0.0 0.0 0.0 0.0 0.0
00000000: 0000 0000 0000 0000 0000 0000 0000 0000
00000010: 0000 0000 0000 0000 0000 0000 0000 0000
00000020: 0000 0000 0000 0000 0000 0000 0000 0000
00000030: 0000 0000 0000 0000 0000 0000 0000 0000
00000040: 0000 0000 0000 0000 0000 0000 0000 0000
00000050: 0000 0000 0000 0000 0000 0000 0000 0000
00000060: 0000 0000 0000 0000 0000 0000 0000 0000
00000070: 0000 0000 0000 0000 0000 0000 0000 0000
00000080: 0000 0000 0000 0000 0000 0000 0000 0000
00000090: 0000 0000 0000 0000 0000 0000 0000 0000
000000a0: 0000 0000 0000 0000 0000 0000 0000 0000
000000b0: 0000 0000 0000 0000

fc2_2.weight f4 [46, 46]
-0.14803517 0.027349569 -0.21768947 -0.16500553 -0.20138824 -0.036403697 -0.17292994 0.24730018
-0.002942521 -0.14832583 0.28201482 0.06635211 0.086809896 0.07206879 0.23142582 -0.2117793
-0.19105674 -0.09589059 0.16866317 -0.20835128 -0.04406207 0.02145957 0.07342525 0.041978326
-0.24246554 -0.047613148 -0.054123536 -0.11424786 -0.17496677 0.014502531 -0.1475424 -0.017519219
-0.18957259 -0.13898182 0.015252303 0.03936809 -0.06962403 -0.15680386 0.14665525 -0.33531877
0.14984371 0.03563859 0.071101554 -0.2103096 -0.006827098 0.046621237 -0.00083679165 0.2611021
-0.13273779 -0.0632209 -0.15529063 -0.13807964 -0.33039528 0.25847307 -0.15667015 0.20977364
-0.18761945 0.010676867 0.059085492 -0.08478757 -0.15168434 0.01901809 -0.053972583 -0.097791284
-0.1429585 0.2665814 -0.033534545 0.047951993 0.06049515 -0.2968183 -0.21852443 0.049683277
0.052085757 -0.120610565 0.147469 -0.029774342 -0.19078362 0.076885894 0.07831811 0.050837457
0.22730179 -0.0041821147 -0.0882339 0.19564174 -0.23663852 0.019654458 -0.11428146 -0.01137063
-0.06929276 -0.16462116 0.040826626 -0.1093146 -0.01174896 -0.19937964 0.28992635 0.050003123
-0.07223459 0.15722986 -0.08004572 0.09829473 0.28691706 0.15230638 0.081898354 -0.14709607
0.15170462 -0.07305829 0.04728219 -0.19803813 0.06159222 0.1324846 -0.057181533 -0.089324184
0.0039158897 -0.35345402 -0.29298884 -0.13547875 -0.042970717 -0.1242205 -0.13248318 -0.02513501
-0.18755284 -0.032604787 -0.23519607 -0.03516516 -0.12474145 0.13296534 -0.11014723 -0.1673578
-0.050853897 0.21349597 -0.24658538 0.034556363 0.082623795 -0.04954334 0.06084403 -0.038251534
-0.0403112 -0.18511087 -0.067906275 0.017907586 0.27277827 -0.14763178 0.19536585 0.17398988
-0.1095667 0.058936562 -0.25028494 0.12576541 -0.37673816 -0.06995628 -0.26372668 -0.006484137
-0.17764266 -0.085564144 -0.041052774 0.053366587 0.27471298 -0.13343646 0.05652784 -0.11813891
0.06265826 0.1091024 0.009105557 -0.1601311 -0.003513234 -0.19962753 -0.19673194 0.04377552
0.13723727 -0.069612995 0.030796763 0.06748476 0.21676657 0.19560747 0.004567229 -0.13764535
-0.17294453 -0.11993889 0.1239564 0.04411249 0.16338593 -0.08667497 -0.09110018 0.08173745
-0.04024734 -0.03843352 -0.21572176 -0.35543007 0.22588134 0.08275837 -0.13728137 0.021965425
-0.073425576 0.16730992 0.18344356 -0.25691277 0.05532149 -0.049791835 0.028195344 0.08634075
0.076040275 0.007690463 0.08386569 0.08726542 0.0113270655 0.08947096 -0.21197464 -0.095237546
0.14764348 0.20482937 0.06390113 -0.040532425 -0.16475083 -0.03374262 0.15634595 0.23734519
0.07207174 0.1848486 -0.16690256 0.24851502 0.12429037 0.2860078 0.14755537 -0.23575598
0.059067894 -0.03949047 -0.008486165 0.13122346 -0.052774593 -0.10067746 -0.10333616 -0.05721861
-0.015741082 -0.0754736 -0.013429493 -0.12984145 0.16131058 0.092946865 0.15309526 0.07088331
-0.12308182 -0.057148922 -0.011478606 -0.038621273 0.11424683 -0.10846922 0.1946231 -0.096352674
-0.011785915 0.069047906 -0.033997513 0.03942363 0.13098 0.26932618 -0.31765264 -0.021994753
00000000: 8896 17be 340c e03c fde9 5ebe 36f7 28be
00000010: b838 4ebe 0b1c 15bd 8c14 31be 423c 7d3e
00000020: 4fd7 40bb bae2 17be 3f64 903e 9de3 873d
00000030: 63c9 b13d cd98 933d e4fa 6c3e acdc 58be
00000040: 61a4 43be 4962 c4bd 0ab6 2c3e 0a5a 55be
00000050: 6e7a 34bd fbcb af3c fa5f 963d 77f1 2b3d
00000060: e348 78be 0106 43bd a4b0 5dbd c8fa e9bd
00000070: 7d2a 33be 069c 6d3c 5b15 17be 7784 8fbc
00000080: 511f 42be 4051 0ebe cce4 793c 6f40 213d
00000090: 0b97 8ebd 3191 20be cb2c 163e e7ae abbe
000000a0: a170 193e c5f9 113d b19d 913d 665b 57be
000000b0: d9b5 dfbb e9f5 3e3d 235c 5bba 2daf 853e
000000c0: 6aec 07be f679 81bd 8204 1fbe c064 0dbe
000000d0: 9229 a9be 9556 843e 246e 20be e7ce 563e
000000e0: 501f 40be 07ee 2e3c a103 723d 1ba5 adbd
000000f0: 2453 1bbe d3cb 9b3c 5b12 5dbd cc46 c8bd
00000100: b763 12be 5b7d 883e 855b 09bd 4f69 443d
00000110: c3c9 773d 91f8 97be dec4 5fbe b180 4b3d
00000120: e057 553d ac02 f7bd 1d02 173e 52e9 f3bc
00000130: c85c 43be 5a76 9d3d 3f65 a03d f03a 503d
00000140: cdc1 683e 1f0a 89bb fab3 b4bd 4f56 483e
00000150: 5e51 72be 6302 a13c 660c eabd e14b 3abc
00000160: 5de9 8dbd 7392 28be d239 273d 55e0 dfbd
00000170: b67e 40bc 2d2a 4cbe 3a71 943e 13d0 4c3d
00000180: bbef 93bd dd00 213e 03ef a3bd bf4e c93d
00000190: cbe6 923e 34f6 1b3e 53ba a73d 5aa0 16be
000001a0: 7558 1b3e 969f 95bd f8aa 413d 82ca 4abe
000001b0: 2048 7c3d 0baa 073e 2f37 6abd 99ef b6bd
000001c0: dd50 803b edf7 b4be a202 96be f1ba 0abe
000001d0: 1002 30bd 5167 febd aca9 07be f0e7 cdbc
000001e0: da0d 40be 998c 05bd 3dd7 70be 5809 10bd
000001f0: 7278 ffbd 1128 083e df94 e1bd d85f 2bbe
00000200: 2d4c 50bd b09e 5a3e e180 7cbe f98a 0d3d
00000210: aa36 a93d f5ed 4abd 9737 793d a4ad 1cbd
00000220: 5b1d 25bd b48d 3dbe 7212 8bbd eeb2 923c
00000230: 98a9 8b3e c92c 17be fc0d 483e 672a 323e
00000240: 8264 e0bd 7767 713d 5925 80be a6c8 003e
00000250: d3e3 c0be 3d45 8fbd 2f07 87be e278 d4bb
00000260: f5e7 35be 413c afbd f426 28bd ec96 5a3d
00000270: 2ea7 8c3e 91a3 08be bd89 673d d0f2 f1bd
00000280: f952 803d 1471 df3d 792f 153c 68f9 23be
00000290: 493e 66bb 296b 4cbe 1974 49be f64d 333d
000002a0: ed87 0c3e 4291 8ebd 7e49 fc3c 7335 8a3d
000002b0: 0ef8 5d3e 534d 483e b2a8 953b e7f2 0cbe
000002c0: 5f18 31be 85a2 f5bd dadc fd3d 4caf 343d
000002d0: a44e 273e a682 b1bd bb92 babd f765 a73d
000002e0: 65da 24bd 776c 1dbd 2ae6 5cbe eefa b5be
000002f0: 704d 673e 387d a93d 7d93 0cbe d6f0 b33c
00000300: 2660 96bd 4b53 2b3e a1d8 3b3e 128a 83be
00000310: c998 623d 86f2 4bbd ecf9 e63c 6bd3 b03d
00000320: 01bb 9b3d 4800 fc3b c6c1 ab3d 36b8 b23d
00000330: 2895 393c 8d3c b73d e10f 59be e70b c3bd
00000340: da2f 173e cabe 513e 98de 823d 5405 26bd
00000350: 71b4 28be b435 0abd 2719 203e 9e0a 733e
00000360: 599a 933d f448 3d3e 81e8 2abe b97a 7e3e
00000370: f38b fe3d 9d6f 923e c118 173e 046a 71be
00000380: 2df1 713d c2c0 21bd 8e09 0bbc 715f 063e
00000390: 2c2a 58bd fc2f cebd e9a1 d3bd 105e 6abd
000003a0: 71f3 80bc e791 9abd 6007 5cbc 28f5 04be
000003b0: 9a2e 253e ed5a be3d 01c5 1c3e 452b 913d
000003c0: 5212 fcbd fd14 6abd c310 3cbc 5731 1ebd
000003d0: 3efa e93d 1c25 debd 474b 473e 8d54 c5bd
000003e0: b619 41bc fd68 8d3d fa40 0bbd ac7a 213d
000003f0: 9f1f 063e 1fe5 893e 5ea3 a2be 572e b4bc

fc2_2.bias f4 [46]
0.0 0.0 0.0 0.0 0.0 0.0 0.0 0.0
0.0 0.0 0.0 0.0 0.0 0.0 0.0 0.0
0.0 0.0 0.0 0.0 0.0 0.0 0.0 0.0
0.0 0.0 0.0 0.0 0.0 0.0 0.0 0.0
0.0 0.0 0.0 0.0 0.0 0.0 0.0 0.0
0.0 0.0 0.0 0.0 0.0 0.0
00000000: 0000 0000 0000 0000 0000 0000 0000 0000
00000010: 0000 0000 0000 0000 0000 0000 0000 0000
00000020: 0000 0000 0000 0000 0000 0000 0000 0000
00000030: 0000 0000 0000 0000 0000 0000 0000 0000
00000040: 0000 0000 0000 0000 0000 0000 0000 0000
00000050: 0000 0000 0000 0000 0000 0000 0000 0000
00000060: 0000 0000 0000 0000 0000 0000 0000 0000
00000070: 0000 0000 0000 0000 0000 0000 0000 0000
00000080: 0000 0000 0000 0000 0000 0000 0000 0000
00000090: 0000 0000 0000 0000 0000 0000 0000 0000
000000a0: 0000 0000 0000 0000 0000 0000 0000 0000
000000b0: 0000 0000 0000 0000

val.weight f4 [1, 46]
2.4401308e-05 -7.13928e-05 -6.174818e-05 -0.00014023793 0.00016619614 0.00018186258 -0.00010121251 -9.177368e-05
-0.00033671153 -2.821765e-05 0.00012904895 -0.00011079262 -0.00013787283 1.083836e-05 -5.4368258e-05 -0.00015450103
-2.9326726e-05 -0.0002103928 0.0003370606 3.066825e-05 -6.9501366e-05 -2.0482594e-05 -2.9121094e-05 -0.00012589002
1.9928457e-05 -2.3032508e-05 0.00018692156 1.6280403e-05 2.813894e-05 -0.00025184816 -0.0001205522 -0.00010083702
-9.033316e-05 4.2693977e-05 0.00018466113 4.0833078e-05 3.1047155e-05 4.304253e-05 -9.090312e-05 -0.0001330724
0.00030002958 0.00036834014 0.000121491 5.6565153e-07 0.00018051817 -0.00021945912
00000000: 69b1 cc37 b8b8 95b8 cd7e 81b8 d50c 13b9
00000010: f044 2e39 5db2 3e39 0d42 d4b8 9f76 c0b8
00000020: a888 b0b9 f1b4 ecb7 5051 0739 5659 e8b8
00000030: f591 10b9 67d6 3537 7909 64b8 8e01 22b9
00000040: aa02 f6b7 e39c 5cb9 82b7 b039 c8a1 0038
00000050: 43c1 91b8 09d2 abb7 1349 f4b7 5801 04b9
00000060: 092c a737 ef35 c1b7 6000 4439 e691 8837
00000070: ea0b ec37 7d0a 84b9 f8d0 fcb8 7778 d3b8
00000080: 3f71 bdb8 4f12 3338 98a1 4139 2f44 2b38
00000090: a138 0238 9188 3438 3ea3 beb8 5a89 0bb9
000000a0: 4a4d 9d39 c71d c139 fcc8 fe38 47d7 1735
000000b0: 7a49 3d39 9c1e 66b9

val_2.weight f4 [1, 46]
-0.00011055077 0.00019572541 -0.0002215272 8.0272825e-05 -0.00019197977 0.00015794483 0.00018692033 0.00028669977
-0.00018926285 4.2350006e-05 -5.6696423e-05 -2.9345227e-05 6.5039065e-05 -5.8208527e-05 -0.0003041679 -0.00020524321
0.00018198133 0.00017529675 -0.00015426874 -0.000109120774 0.00014062197 8.078934e-07 -7.6869626e-05 -8.945923e-05
-9.639239e-05 0.00018162862 0.00022398254 7.8397956e-05 -0.00011195495 0.00015878126 -6.261281e-05 0.00023234272
0.00017239823 6.3445295e-05 8.2993036e-05 0.00011802296 9.8476485e-05 -5.3866393e-06 6.203884e-05 0.00014214263
0.00014360044 9.4909126e-05 -0.00018649682 -9.90347e-06 0.00014698965 -0.00017065142
00000000: 7ed7 e7b8 a43b 4d39 c149 68b9 2558 a838
00000010: 2d4e 49b9 fe9d 2539 0b00 4439 3150 9639
00000020: dc74 46b9 f9a0 3138 52cd 6db8 652a f6b7
00000030: 9565 8838 ee24 74b8 b978 9fb9 8e36 57b9
00000040: 3ed2 3e39 ddcf 3739 33c3 21b9 c5d7 e4b8
00000050: ec73 1339 03de 5835 1135 a1b8 0f9c bbb8
00000060: 4526 cab8 9073 3e39 dbdc 6a39 9569 a438
00000070: 5bc9 eab8 857e 2639 ff4e 83b8 06a1 7339
00000080: ccc5 3439 ef0d 8538 8c0c ae38 1883 f738
00000090: 2985 ce38 e1be b4b6 d91a 8238 1f0c 1539
000000a0: 7393 1639 f309 c738 5c8e 43b9 1427 26b7
000000b0: 3c21 1a39 e4f0 32b9
