Udacity/Continous_Control/PPOPolicycheckpoint2.pth (torch_old, 9336 bytes, 7 tensors)

std f4 [4]
000000 55 21 9a bf 83 43 97 bf 59 dd a1 bf f0 25 a4 bf
       -1.2041422 -1.1817478 -1.2645675 -1.2824078

fc1.weight f4 [30, 33]
000000 f7 d8 19 3e 14 28 75 3e 58 5c 93 bd 11 66 35 3e
       0.15024172 0.2394107 -0.071953475 0.17714716
000010 e5 a6 70 3e 03 f7 14 bd 37 b4 58 3e 09 62 d3 3d
       0.23501165 -0.03636838 0.21162497 0.10321433
000020 0a 7e 3f bb 6d 5f 5e be a3 ab 62 3e ac 36 8f bd
       -0.0029219412 -0.2171609 0.22135787 -0.0699285
000030 a2 25 dd 3d 82 34 b5 3d 6e 6b e8 bc 9e e0 46 bd
       0.107981935 0.08847906 -0.028371539 -0.048554055
000040 94 fb 06 3d 30 4b db bd 5f e0 01 bb 25 2e 19 3e
       0.032954767 -0.107077 -0.0019817573 0.14959009
000050 04 a0 4a bd 38 3b 48 be 3e 03 48 be 4a 69 e9 3d
       -0.04946901 -0.1955384 -0.19532487 0.113970354
000060 91 cc d3 bd f9 df 71 be fd d6 a5 be 46 9a 98 bd
       -0.10341752 -0.23620595 -0.32390586 -0.074513
000070 2c 19 c7 3e c6 29 1c be 3a 23 0c 3d 9f 87 56 3e
       0.38886392 -0.1525031 0.034213282 0.20950173
000080 2e 9b 21 3f 10 1f 13 3e 02 16 3e 3e 78 44 da 3d
       0.6312741 0.14367318 0.18563083 0.10657591
000090 d0 94 1d be 2a 83 c7 3a 18 4e 76 be 90 16 45 3d
       -0.15388799 0.0015221585 -0.24053228 0.04811722
0000a0 91 27 b4 3e 94 69 3f 3d 13 58 9d bd c9 54 8f 3e
       0.35186437 0.046731547 -0.076828144 0.27994373
0000b0 c0 0d 19 3e 05 c8 31 be 38 8e e5 bd 9e a1 62 be
       0.14946651 -0.17361458 -0.11208767 -0.22131965
0000c0 6e 4c 6d bb 81 c3 3c be 4b 31 2e 3e 92 f6 83 be
       -0.0036208886 -0.18433954 0.17010991 -0.25774056
0000d0 e3 91 8c 3d af 9b 5c 3e 37 e8 b5 3d 06 82 84 3e
       0.06863763 0.21543764 0.08882182 0.2588045
0000e0 70 02 16 be e8 97 d8 bc 3c eb 9f 3c 65 f9 12 3e
       -0.14649367 -0.026439622 0.019521348 0.14352949
0000f0 20 38 7d 3e 06 01 e0 3e 79 6e 30 bd 06 99 0b 3d
       0.24728441 0.4375078 -0.043074105 0.03408148
000100 26 5b 00 be 3c 59 85 bd 86 3a 2d be 68 a1 32 3e
       -0.1253477 -0.06511161 -0.16916856 0.17444384
000110 02 d7 09 be 1f 56 62 3d 37 50 2d bf a2 23 b4 bd
       -0.13460925 0.055257913 -0.67700523 -0.08795859
000120 92 6b e1 bc 43 40 45 bd de 4d 71 3c 8b c4 c2 be
       -0.027517114 -0.048156988 0.014728038 -0.38040575
000130 b1 05 2a be 49 ee 9f 3d 22 4e 14 be 1c 7e 6f be
       -0.16603734 0.07809121 -0.1448293 -0.2338795
000140 d2 c6 35 be 76 0a 81 3d 11 0b 8e be a4 eb c0 bc
       -0.17751625 0.063008234 -0.27742818 -0.023549862
000150 cc 86 61 be ce 34 58 3e 9c 20 ae bd f7 57 13 be
       -0.22024077 0.21113893 -0.085023135 -0.14389025
000160 7d 0c 27 bf 6b b4 6b be 9b 97 40 bd d2 a8 64 bd
       -0.6525343 -0.23018043 -0.047019582 -0.055825062
000170 3f ce cb 3e 31 11 95 3e 6f d5 de bd 5f d2 14 3d
       0.3980579 0.29114679 -0.10880553 0.036333438
000180 e6 8a f6 bc 12 fc 27 be 33 21 f2 3e 73 31 0f 3e
       -0.030095529 -0.16404751 0.47290954 0.13983707
000190 bf b8 36 3e a2 73 e3 bd 32 ff 1d 3e 95 ce 53 3e
       0.17843913 -0.111060396 0.1542938 0.20684274
0001a0 e9 d8 13 be 89 40 8b 3d 4b 8e 9b bd c3 c2 64 be
       -0.14438213 0.067994185 -0.075954996 -0.2233992
0001b0 35 6a 47 be 2a 8d ce bd 42 3b e4 bc bf 69 db 3e
       -0.19474109 -0.10085519 -0.027860288 0.42854115
0001c0 e9 d1 9e 3e 9b df 2a be c0 9c 8d be 80 1c c4 3d
       0.31019524 -0.16686861 -0.27658653 0.095757484
0001d0 67 e0 97 be 76 db 38 bd 5d bc d1 bd b8 96 79 3e
       -0.29663393 -0.04513117 -0.102410056 0.24373901
0001e0 94 47 00 3e 63 03 c9 3d d7 13 76 be 45 4a f9 bd
       0.12527305 0.09815099 -0.24031006 -0.12172369
0001f0 c4 6f c2 be 54 c6 03 3e 1e 1f 85 bc 77 03 ec bd
       -0.37975895 0.12868625 -0.01625019 -0.11524098
000200 c2 5a a1 3d a0 0a 7e 3e 9b 84 a1 3e 1f 0c e7 3d
       0.07878639 0.2480874 0.31546482 0.11281609
000210 d7 d1 9a bd 2c 66 11 3e c6 b4 10 3e d3 48 66 3e
       -0.07559555 0.14199132 0.1413146 0.22488718
000220 98 f7 a3 3d fb a2 03 bd 4a c1 92 bd 28 91 41 be
       0.08006209 -0.032137852 -0.07165773 -0.18903029
000230 12 0f 64 be 5c 7d 03 3e a2 f9 a0 3d 96 3d 6d 3e
       -0.22271374 0.1284079 0.07860114 0.23168024
000240 ca e1 1c be f8 a3 68 be 68 fa 46 be 25 94 88 be
       -0.15320507 -0.22718799 -0.1943146 -0.26675525
000250 56 fe 7d 3d 35 11 83 3e 01 dc 31 3e 81 3a b8 bc
       0.06201013 0.25599065 0.17369081 -0.022488834
000260 2b 10 8e bd 6b ed 1e 3d 6e 41 5b be 24 9a 26 bd
       -0.069366775 0.03880064 -0.21411678 -0.040674344
000270 f9 ce b6 3e 66 ad 1c 3d a3 ac 3e 3e 3e 0d 8c be
       0.35704783 0.038251303 0.18620543 -0.27353853
000280 77 3c 76 be cd 18 87 3d 35 fc 28 be 25 0c 02 3e
       -0.24046503 0.06596527 -0.1650246 0.12699945
000290 d8 68 ed 3e 86 10 e6 3c 24 cf 96 3e 3a 19 01 3d
       0.46369052 0.02808405 0.2945491 0.0315182
0002a0 34 d9 35 bc 76 4e 56 be 86 55 7e bd 78 e3 25 be
       -0.011099149 -0.20928368 -0.06209328 -0.16200054
0002b0 1e ac a8 3e 34 6e 33 be 75 dd b1 3d 5e 44 89 bd
       0.32943815 -0.17522508 0.08684818 -0.06702493
0002c0 96 f8 0b 3e 08 3d 83 bd a9 b3 3e 3e 22 d2 b9 3e
       0.13669047 -0.06408125 0.18623222 0.3629313
0002d0 fe cc 5b bd 0e 2e 6e be df 56 0c bd 22 fe 42 3e
       -0.053662293 -0.23259756 -0.034262534 0.19042256
0002e0 b4 d9 c1 bc 27 a5 dc bd 80 80 16 be bd ec 1d 3e
       -0.02366338 -0.10773688 -0.14697456 0.1542234
0002f0 18 05 b8 3d 6f 25 57 3e 79 98 1c 3d de 63 61 be
       0.089853466 0.21010374 0.038231347 -0.22010753
000300 07 ef 01 be 9f f9 65 be 5f a6 ea 3d d3 e3 be bd
       -0.12688838 -0.22458504 0.11457514 -0.09320798
000310 44 81 52 be 0c 9c 51 3f cf 6f 68 be 5f bb ca 3e
       -0.20557123 0.81878734 -0.22698902 0.39596078
000320 c3 c0 18 3e 9c fe 0d be 98 17 e6 bd 9c 87 0a be
       0.14917283 -0.13866657 -0.11234969 -0.13528293
000330 ad fa ca bc 27 c4 f9 3e ef 46 b8 bd 93 1a 56 be
       -0.024777735 0.48782465 -0.089979045 -0.20908575
000340 b6 d1 f0 bd bf ee 4e be 57 19 c3 bd 3f 08 55 3d
       -0.11758749 -0.20208262 -0.095263176 0.052009817
000350 df a2 32 be 20 33 a4 3e 46 47 2c 3d 7f 91 5a be
       -0.17444943 0.32070255 0.04206016 -0.21344565
000360 69 e8 72 be 0a 63 75 3e 05 82 ff bd d1 e0 8f 3d
       -0.2372147 0.23963562 -0.12475971 0.07025302
000370 16 80 6b 3e d0 99 5b be 97 7c 5c bc 7c 76 8e bd
       0.2299808 -0.21445394 -0.013457439 -0.06956193
000380 11 3c 66 be 77 74 9c be 94 47 e5 3d 08 13 32 bb
       -0.22483851 -0.30557606 0.11195293 -0.0027171988
000390 e8 44 36 bd c1 c3 9e be 7e 22 af 3e d7 91 41 be
       -0.044499308 -0.31008723 0.34206003 -0.1890329
0003a0 32 38 08 bb d3 74 91 3c 47 3e 11 be 3d 42 ad be
       -0.0020785448 0.017755901 -0.14183913 -0.33839598
0003b0 e1 a0 40 be 98 35 12 3e 68 0f 59 be dc 3b b6 bd
       -0.1881137 0.14278257 -0.21197283 -0.08898136
0003c0 f9 aa 7d 3c 8b 42 12 3e c1 d0 98 bd 66 05 3c be
       0.015482658 0.14283197 -0.07461692 -0.18361434
0003d0 94 58 7e 3d 85 dc 35 bd e0 b0 0d be 83 38 06 bd
       0.062096193 -0.044399757 -0.13837004 -0.032768738
0003e0 a2 7f 73 bd de a5 b0 3d 8f 66 4f 3e c5 b4 73 bd
       -0.059447892 0.08625387 0.20253967 -0.059498567
0003f0 1d 3f 48 3e 74 5c 0b bb cb b7 7f 3e 0c 8d a5 3e
       0.19555326 -0.0021264823 0.24972455 0.32334173

fc1.bias f4 [30]
000000 0e e1 bb b8 1a 07 c3 bd 72 5d 17 be 77 74 fa 3d
       -8.9587746e-05 -0.09522839 -0.1478174 0.12229245
000010 a5 aa 72 3d 54 03 3a bc f8 7e a2 bd a8 e3 30 3e
       0.05924477 -0.011353333 -0.079343736 0.17274344
000020 2f 68 69 bd 17 c4 dc 3d 6b 5a 1a 3d 1f 77 a0 bd
       -0.056984123 0.10779589 0.037683886 -0.078352205
000030 6c 2a d8 3d 6a 9e 30 3c be b9 35 bd c5 9c ce 3d
       0.10554966 0.010779956 -0.04436659 0.10088495
000040 1d 88 99 bd 5a ff 3a bd 2e 67 fe bc 7e 78 9f bd
       -0.07496665 -0.04565368 -0.03105506 -0.07786654
000050 4c 26 2b bc d2 ce a5 bd ee ec f3 bd 91 da 5e bd
       -0.010446142 -0.080960885 -0.11910425 -0.05440766
000060 57 5d f3 3d cc 53 f9 3c 68 07 1a 3d e3 86 cc bd
       0.118830375 0.030435465 0.03760472 -0.09986665
000070 29 d3 cf bd e5 a4 15 3e
       -0.101476975 0.14613684

fc2.weight f4 [30, 30]
000000 48 25 8b 3e 95 22 e8 3d a2 a8 55 3e c5 f3 fc 3d
       0.2717688 0.11334721 0.2086511 0.12351183
000010 82 3a 15 3e 73 4d 51 3e 5c df 08 3d 39 38 1a bd
       0.145731 0.20439701 0.033416137 -0.037651274
000020 97 a5 8e bb 6b 8e 3c be 54 24 e8 3d 50 d2 3a 3c
       -0.004353236 -0.18413703 0.11335054 0.0114026815
000030 79 ea dd 3c 8f 97 7b be 00 0f 1e be 66 8f 70 be
       0.027089344 -0.24569534 -0.1543541 -0.23492202
000040 50 74 d8 bd 1f b6 5d be a0 ad 05 3e 1a 69 24 be
       -0.1056906 -0.21651505 0.13054514 -0.16055718
000050 df 22 8d 3d 12 6b 0b 3f fe 9e 63 3c 65 6a e2 be
       0.06891417 0.5446025 0.013892887 -0.44221798
000060 c7 59 df 3c c6 56 90 3e 51 3a ac 3e a0 ab 3c 3e
       0.027264489 0.28191203 0.33638242 0.18424845
000070 48 4f 1f 3d df 71 9d bc 29 68 30 3e f7 93 a4 3e
       0.038893968 -0.019219337 0.17227234 0.32144138
000080 c6 a8 0e be 21 ef 56 3d 77 13 32 bc 1c 23 7a be
       -0.1393157 0.052474145 -0.010868899 -0.24427456
000090 ab b1 b5 3c c9 bd 53 3e fd 54 a8 bd 7f dc 7e bd
       0.022179445 0.20677866 -0.08219335 -0.062222
0000a0 bb e7 e4 3e 1a 98 a5 3e 26 9a 7f 3d 39 cd de be
       0.44708046 0.32342607 0.062402867 -0.43515947
0000b0 58 f6 9b bd e2 3d 8a be 92 c0 12 3d 3d 5e fa 3e
       -0.07615346 -0.27000338 0.03582818 0.48900023
0000c0 d7 7d 82 be 70 f1 a1 3e d6 71 60 be 98 87 d2 3d
       -0.25486633 0.31629515 -0.21918425 0.10279769
0000d0 15 c1 a0 3e 5f 34 7e bd f6 2e 79 3d a9 2a 2d 3b
       0.3139731 -0.062061664 0.0608358 0.0026423133
0000e0 6e 8d 93 3c 47 a8 9b be bc d7 86 bd 28 ff 24 3d
       0.018011775 -0.30401823 -0.06584117 0.0402824
0000f0 fd cc be 3c 08 f3 35 be 44 95 d0 3e 3e ac 28 3d
       0.023291105 -0.1776849 0.4073888 0.041179888
000100 d0 82 02 3d 5b 00 0a be 55 f9 83 be 25 2f a5 bd
       0.031863034 -0.13476698 -0.25776163 -0.08065633
000110 5c 77 db 3e 97 df aa 3d 6c eb 0c 3f 7a 2f be 3c
       0.428645 0.08343428 0.55046725 0.023215998
000120 85 4b a1 bd a5 90 49 3e ac ab 67 3e 69 89 53 3e
       -0.07875732 0.19684084 0.22624081 0.20657887
000130 ac 5e 7c bd ea 01 19 3c eb da d7 3d 93 99 a2 3c
       -0.061613724 0.009338835 0.10539802 0.01984862
000140 34 45 be be 83 c1 96 3b d6 de 32 3e 50 b9 dc bd
       -0.37162173 0.004600705 0.17467818 -0.10777533
000150 13 fc 47 be fb 80 23 be 29 49 e4 3d 62 35 2c bd
       -0.19529752 -0.15967171 0.11146767 -0.042043097
000160 6b 2d 9c be 4d 91 64 bb 70 88 5d 3e 29 b0 26 3d
       -0.305034 -0.0034876645 0.21634078 0.040695343
000170 26 59 3d bd bd 32 87 bd f1 46 90 3e fd 3d e5 3e
       -0.046227597 -0.066014744 0.28179124 0.44773856
000180 55 c8 f2 bb 5f d5 98 be 0b 06 21 be a5 c4 0c 3e
       -0.0074091353 -0.2985029 -0.15724961 0.13746889
000190 50 e8 46 bc 1a 2a 5a 3c 08 75 20 3f 6a 61 4a 3e
       -0.012140349 0.013315702 0.62678576 0.19763723
0001a0 12 e6 82 3e c6 78 b2 bd 09 59 90 3e f8 21 b3 3d
       0.25566155 -0.08714442 0.28192928 0.087467134
0001b0 d2 f4 ad 3d a7 d7 9f 3d 88 c6 60 be 2e e5 d4 be
       0.084939614 0.07804804 -0.21950734 -0.415811
0001c0 57 c9 b1 3e 68 c3 03 be d9 c1 43 3e 17 f7 94 3e
       0.34723923 -0.1286751 0.19116916 0.29094765
0001d0 45 bc d6 3d 19 11 01 3d 91 ed 57 be a3 a4 10 3e
       0.10485128 0.031510446 -0.21086718 0.14125304
0001e0 66 a0 83 3e df 36 c4 3d 73 a6 d6 bd 60 fc 7f 3e
       0.25708312 0.09580778 -0.104809664 0.24998617
0001f0 97 3a 82 be 0b 51 39 be 0d c2 c6 bd f3 da a6 bd
       -0.25435326 -0.18097322 -0.09704981 -0.0814723
000200 ba d7 ff bb ba 2e 3a 3e 03 eb df 3e 1a 63 14 3e
       -0.007807699 0.18181887 0.43733987 0.14490929
000210 0a 75 c2 3d d3 20 d9 bd a4 61 53 be 5b 12 7a bc
       0.0949498 -0.10601964 -0.20642716 -0.015263165
000220 e8 e6 e9 bd 63 07 e5 3d f3 f5 e1 bd f7 56 ff bd
       -0.11420995 0.111830495 -0.11033239 -0.12467759
000230 73 6b 43 3e e3 b9 bb bd 12 8d a5 3d 8b 8d d0 3d
       0.19083957 -0.091663145 0.08083548 0.10183247
000240 85 b9 ed 3e 8f 4e 6e be b8 4e c7 3d ad 1a 00 3e
       0.46430603 -0.23272155 0.09731811 0.12510176
000250 5a 33 14 3e 48 86 96 be 10 c5 82 bd 01 a9 dd be
       0.14472714 -0.29399323 -0.06385243 -0.43293002
000260 2c bf 08 3e 19 61 c0 bd b5 cc 04 3e 95 cf 99 be
       0.13354176 -0.0939352 0.12968715 -0.30041185
000270 a3 17 05 3c a0 59 cd bd 13 b7 06 3e a5 a1 65 3e
       0.008123311 -0.1002686 0.13155775 0.22424944
000280 ff 5c 91 3c 54 0d cb bd cb f2 5b 3e a4 7a 27 be
       0.01774454 -0.099146515 0.21479337 -0.16355377
000290 49 b5 6c bd d4 74 03 be 8c e6 5a bc 64 bf c8 3e
       -0.057790074 -0.12837535 -0.013360631 0.3920852
0002a0 73 a3 07 3c 87 9d 0c 3e 55 73 90 3e f9 41 65 3e
       0.008278715 0.13731967 0.2821299 0.22388448
0002b0 f5 bc 9c be 0f fa 69 3d 49 01 94 3d 9c f0 18 be
       -0.30612913 0.05712324 0.072268076 -0.14935535
0002c0 47 8e e8 3e a8 b7 24 3e 7c ba d4 bd 88 15 a6 be
       0.4542105 0.16085684 -0.103871316 -0.32438302
0002d0 de 61 ff be 65 ca df bd 49 08 f1 3e f5 ee d4 3d
       -0.49879354 -0.109272756 0.47076634 0.1039714
0002e0 22 ec 29 3e 99 30 3e be 09 e2 8e 3d ff 03 7b be
       0.16593984 -0.18573226 0.069767065 -0.24513243
0002f0 2e 3c 2a 3c 71 ac 86 be dd e5 8f 3d 82 75 01 3e
       0.0103903245 -0.26303437 0.07026265 0.12642482
000300 b3 47 43 3e d4 a2 f3 3c 90 61 91 be 41 f4 25 3e
       0.1907032 0.029740728 -0.28394747 0.16206457
000310 f4 4a 33 3d bb f5 53 be 73 45 2a 3d c2 96 29 bd
       0.043772653 -0.20699207 0.04157014 -0.04140354
000320 f4 dd 0b be 78 d4 74 be 22 05 d5 be 26 44 49 3d
       -0.13658887 -0.23909175 -0.4160548 0.049137257
000330 bd 23 10 be 0e 22 47 3e 94 fc 2f 3e 93 8c 49 be
       -0.14076133 0.19446585 0.17186195 -0.19682531
000340 da 7c f4 38 fa 26 6e be fb 80 42 3d 4d c3 79 3c
       0.00011658082 -0.23257056 0.047486287 0.015244317
000350 5c c7 cf bd fc f5 3e be 08 a7 3f 3d fe 06 d3 bd
       -0.10145447 -0.18648523 0.046790153 -0.10304068
000360 2e d4 de be 2a 0e 55 3d 7b 31 e7 3d 6c 15 4b be
       -0.43521255 0.05201546 0.112887345 -0.1983239
000370 d9 12 92 3d bf 5c fc be 7c fc 22 3e e8 ef d0 3d
       0.07132501 -0.4928951 0.15916628 0.102020085
000380 4f 56 01 3e b6 c0 a3 bd da 44 ed 3e 97 6a 0d 3e
       0.1263058 -0.07995741 0.46341592 0.13810192
000390 91 36 69 be df 0a 17 be de a7 58 3d 5a be 29 be
       -0.22774722 -0.1475024 0.052894466 -0.1657652
0003a0 10 9f 04 3f c1 fe cd bd fa 23 ae bc a0 9c 89 bb
       0.5180521 -0.10058356 -0.02125739 -0.0041995794
0003b0 84 ca 07 bd 80 1e 2e be a4 b3 12 bc fc 3b ba be
       -0.03315212 -0.17003822 -0.0089539625 -0.3637389
0003c0 1c cb 9a be ff eb b4 bc 97 b1 62 3e 29 c6 cf 3e
       -0.30233085 -0.022085188 0.22138058 0.40580872
0003d0 21 b9 02 be 12 e8 b3 be 84 73 46 3e 77 5a 13 3e
       -0.12765934 -0.35137993 0.19380003 0.14389978
0003e0 6d 7a 97 3d b7 c6 9a 3d fe 78 cf bc 47 7a de 3e
       0.07396398 0.07557433 -0.025326248 0.43452665
0003f0 f3 ab e0 3c af df b6 bd eb 8b 87 3e 49 0d f0 bd
       0.027425742 -0.08929383 0.26473936 -0.11721284

fc2.bias f4 [30]
000000 6a f8 c4 bc 92 a4 2c 3d 80 37 7d bc 47 b5 18 3d
       -0.024044234 0.042149134 -0.015455127 0.037282255
000010 81 f0 6d bc bb e1 9f 3c e1 8d 25 bd 25 c7 05 bd
       -0.014522673 0.019516816 -0.04041851 -0.032660622
000020 f0 c9 2d bb 26 97 7a bd 3e 8d df 3d 70 b3 b4 bd
       -0.002651807 -0.061179303 0.10915612 -0.088232875
000030 8f 69 c9 3c 4c d8 93 ba a5 8d 1b 3e 0a 4f 14 3e
       0.024586467 -0.0011279671 0.15190752 0.14483276
000040 5f d4 a2 bd 72 1d 88 3a a4 22 94 bc aa b3 04 3e
       -0.07950663 0.0010384752 -0.018082924 0.12959161
000050 ff 62 2f bc d2 81 bc bc 28 97 17 3c ff 9b fa 3d
       -0.010704755 -0.023011122 0.009252347 0.12236785
000060 0e c3 38 3d 44 c5 79 ba 15 c7 ee bb 82 1f 4a b9
       0.045107894 -0.0009527991 -0.007286916 -0.00019275959
000070 e7 c9 99 bd ab 7d 6b bd
       -0.07509213 -0.057492893

fc3_mean.weight f4 [4, 30]
000000 21 2e b5 bd 64 72 eb 3d ff 3e b8 3d 74 09 0f bc
       -0.08846689 0.11496428 0.089963906 -0.008730281
000010 f3 73 81 3c 81 8c a2 3d 21 49 f7 bc fd b5 0b 3e
       0.01580236 0.07936955 -0.030186238 0.13643642
000020 6c cc 4f 3d 9a bd 83 3d 68 3b 83 3d b8 ea 0f 3e
       0.05073206 0.06432648 0.06407815 0.14054382
000030 19 55 82 bd 88 6a d9 bd 03 91 55 bd b5 d9 b6 bc
       -0.06363887 -0.10616022 -0.052140247 -0.022320608
000040 a9 dc dc 3d de 47 2a 3d 10 68 ac 3b 21 9e 72 3d
       0.10784275 0.041572444 0.0052614287 0.059232835
000050 55 42 98 ba ee 82 23 bd d0 90 26 bd ba 52 cc 3a
       -0.0011616448 -0.039919786 -0.040665448 0.0015588619
000060 79 77 26 3d 56 a4 0f bc 25 bf a3 3b c4 6c 11 be
       0.04064128 -0.008767208 0.0049971514 -0.14201647
000070 aa 47 6a bd 3b 26 d0 3c 9d 7b ac 3d f4 4d 08 bd
       -0.05719725 0.025408855 0.08422015 -0.033277467
000080 40 18 4a 3d ff 16 24 3d 6f d1 f7 3c d4 93 99 3d
       0.049339533 0.040060993 0.030251233 0.07498899
000090 e3 59 84 3d 9a 08 4b bd f8 81 9b 3d 5b e9 67 3c
       0.06462457 -0.04956875 0.07593149 0.014154757
0000a0 c7 78 3a 3d e2 85 01 bd 36 08 46 3d 9d 2a 98 3c
       0.04552534 -0.03162182 0.048347674 0.018575007
0000b0 dc 69 b1 bd 88 ba 93 3c bd 88 56 bd 35 b3 ba 3d
       -0.08662769 0.018033281 -0.052376498 0.09116212
0000c0 4b 59 f5 3c 71 f8 cc bc 76 a7 96 bd 2f 0f 06 bd
       0.029949805 -0.02502081 -0.073561594 -0.032729324
0000d0 8b 48 10 be b0 24 c6 bd 88 d2 07 be 88 dd 36 bd
       -0.14090173 -0.09674966 -0.13263905 -0.044644862
0000e0 63 80 44 3c 49 c9 32 bd 44 92 16 3d 7c d1 3e bb
       0.0119935 -0.04364899 0.036760584 -0.0029116562
0000f0 4e ff d8 3d d3 2f bd bd dd db bc bc 99 b8 09 be
       0.105955705 -0.09237637 -0.023054058 -0.13449325
000100 26 d1 91 bb 9d 30 d2 3d f1 dc ce 3d 82 c5 10 be
       -0.0044499813 0.102631785 0.10100735 -0.14137843
000110 b1 e1 cc 3d 18 45 40 bc 1a a4 82 3c 45 cf 3f 3c
       0.10003985 -0.011735223 0.01594739 0.011707132
000120 f3 2e 0d be 38 24 93 be b8 93 a5 3d 0e 77 3a 3c
       -0.13787441 -0.2873857 0.08084816 0.011380924
000130 03 08 ae 3d 11 3f 2b be 9a 7e d4 bd 89 06 bc 3d
       0.08497622 -0.16723277 -0.1037571 0.09180934
000140 7b db bc 3d ad bf 89 bd 6c bb 41 3c d0 2e ab bc
       0.0922155 -0.067260124 0.01182447 -0.020896345
000150 ca b1 4f 3c 68 91 6f bb 1c b4 c7 3d 57 5c d2 3c
       0.012676666 -0.0036555175 0.0975115 0.025678797
000160 1d e7 02 3d 7e 35 f4 bb c9 f7 12 bb fc be d4 bd
       0.031958688 -0.007452666 -0.0022425523 -0.1038799
000170 6a f4 30 3d 38 0e 05 3e 27 2c e6 bd 7c 14 c7 bc
       0.04320184 0.12993705 -0.1123889 -0.02430176
000180 94 b6 15 3c b1 91 83 3d ba 9d bb bd 42 2c 38 3e
       0.009137768 0.06424273 -0.09160943 0.17985633
000190 8b 8c 8d bd e4 ca 88 3d cf 6e 6e bd e7 96 23 bb
       -0.06911572 0.06679323 -0.058211144 -0.002496177
0001a0 b2 84 53 3d 3a 6d 9e 3c 20 ac 9d bb 1d 45 b5 bd
       0.05164022 0.019339193 -0.0048117787 -0.08851073
0001b0 0d 32 4d bd 14 4d ba bd be ff 95 bd d3 7a f5 3d
       -0.05009656 -0.09096733 -0.073241696 0.119863175
0001c0 7b a4 d4 bd d2 22 39 be e2 f0 b8 3d aa 5e 52 3e
       -0.10382935 -0.18079689 0.0903032 0.20543924
0001d0 fb e4 52 bd 89 96 9b bd 5e e2 4b bb 29 0e cf bd
       -0.051487904 -0.07597072 -0.0031110267 -0.10110123

fc3_mean.bias f4 [4]
000000 aa 06 88 3d a1 5d d6 bc 02 40 6f bc 37 ee 93 3a
       0.06641896 -0.026167693 -0.014602663 0.0011286204
