Udacity/Continous_Control/PPOValuecheckpoint2.pth (torch_old, 8848 bytes, 5 tensors)

fc1.weight f4 [30, 33]
0.18870485 -0.0027210496 0.047290668 -0.05723694 0.4046185 0.008836945 0.004890681 -0.23652014
0.09300874 -0.061235126 -0.15604569 -0.119609706 -0.02164145 -0.23055902 -0.2181868 -0.08679245
-0.30075735 -0.1712469 -0.16052428 -0.30412608 0.19413337 0.19036886 0.15751621 -0.26332647
0.21657145 0.17522207 0.017758027 -0.063346185 -0.10826958 0.021118945 -0.024316752 -0.1822562
-0.21273701 -0.022093883 -0.18042275 -0.08534983 0.00724888 0.026752524 -0.21232195 -0.079502136
0.09434673 0.1320592 -0.027379103 0.22494078 -0.06247399 0.14538994 -0.22169696 0.11161502
-0.26043665 0.06677948 -0.23570538 0.14042513 -0.020426195 -0.17718206 -0.1738135 0.07337604
0.034784704 -0.10638811 0.5976728 -0.23071223 -0.058919415 0.14620368 -0.14540666 0.078764975
-0.1494632 0.17520346 -0.11952538 -0.23239265 0.039956156 -0.20314609 0.067744866 0.20818537
0.02593179 0.37703234 -0.1263185 -0.015937628 0.19933845 -0.2452562 0.092965856 0.18929687
0.060980156 0.11924347 -0.20867239 -0.2633275 -0.06637894 0.09885862 -0.15047958 -0.16196463
-0.08481202 -0.20554884 0.43432888 -0.017825682 -0.017168742 -0.05525087 -0.032893937 -0.053604253
-0.2581732 0.1713774 -0.04364961 -0.115847826 0.15012613 -0.17777134 -0.39741638 0.23628262
-0.16095893 -0.11525312 -0.018680112 0.10293987 0.08249004 0.030591886 -0.10726546 0.036076754
-0.23234448 0.15980162 0.020253856 -0.00064525194 0.02535971 -0.13742405 -0.082786925 0.040687945
-0.21259375 -0.37167105 -0.0376897 -0.13449883 -0.029619522 0.28877002 0.34888765 0.2755665
0.0957658 0.052083492 0.1590071 -0.13445605 -0.12454658 0.118951164 0.12522335 -0.19186033
-0.31422955 -0.1259605 -0.26989987 -0.19449142 0.00024137553 0.101213984 0.049053907 0.21921769
0.11525242 0.0015107542 0.027339157 -0.26705232 -0.40931392 0.003840087 0.11080282 -0.02782083
-0.019956479 0.23068742 -0.16728266 0.0799566 0.27108416 0.022387022 0.14666268 0.06176538
-0.07292914 0.09349835 -0.16533695 -0.0692289 0.36388713 0.12534238 -0.0011268042 -0.08008903
-0.12658758 -0.07290648 0.38463613 -0.29590142 -0.06524061 -0.3194942 0.08061179 -0.30080697
0.066481516 -0.11280095 0.07109344 -0.04654283 0.04214508 0.036415275 -0.04639007 0.37172797
-0.07602973 0.20406903 -0.21252893 0.14435753 -0.07263753 0.0017440785 0.29068482 0.2262525
0.0031239777 0.13020639 -0.16108698 0.0970136 0.19973221 0.05743272 0.0017196747 0.06381293
0.1813335 0.1476244 -0.2807397 0.19503522 0.085182436 0.1759631 0.34990954 -0.057349432
-0.13773432 0.14277321 0.31665933 -0.3561726 0.19432957 -0.02828155 -0.0025128825 -0.22876367
-0.015796322 0.11057232 0.36400408 -0.17801684 0.11025767 -0.0032801826 0.00950043 -0.13979487
0.159643 0.025538554 0.053454667 -0.13140832 -0.16826686 -0.06889489 -0.123583026 -0.044064596
-0.19869441 -0.25427327 0.041830532 0.018677898 -0.17344928 0.031397272 -0.12256855 -0.020549528
0.11897325 0.038935546 -0.042493742 0.036626395 -0.23534748 0.235488 0.30967265 -0.30183747
0.051354777 0.32172033 -0.1060107 0.11501637 -0.2689584 0.062636286 -0.0023237625 -0.11437292
00000000: d83b 413e a353 32bb dcb3 413d 4871 6abd
00000010: 282a cf3e d5c8 103c 0142 a03b 5632 72be
00000020: 5e7b be3d afd1 7abd 71ca 1fbe eff5 f4bd
00000030: 6949 b1bc aa17 6cbe 5c6c 5fbe 3dc0 b1bd
00000040: defc 99be 595b 2fbe 7a60 24be 6ab6 9bbe
00000050: e6ca 463e 0ef0 423e ee4b 213e bad2 86be
00000060: e8c4 5d3e 6a6d 333e 4879 913c a5bb 81bd
00000070: 71bc ddbd a301 ad3c ed33 c7bc 5fa1 3abe
00000080: bbd7 59be 3bfe b4bc bec0 38be e4cb aebd
00000090: 0388 ed3b 1c28 db3c ed6a 59be 04d2 a2bd
000000a0: dc38 c13d 873a 073e 244a e0bc e056 663e
000000b0: bae4 7fbd 1ae1 143e 8704 63be 6a96 e43d
000000c0: f457 85be aec3 883d c05c 71be 9bcb 0f3e
000000d0: d654 a7bc 376f 35be 2bfc 31be 2d46 963d
000000e0: 687a 0e3d 02e2 d9bd 1601 193f d43f 6cbe
000000f0: 7c55 71bd 6bb6 153e 7ce5 14be 884f a13d
00000100: e20c 19be 8968 333e b9c9 f4bd 57f8 6dbe
00000110: 11a9 233d 8705 50be d2bd 8a3d 8c2e 553e
00000120: e86e d43c 620a c13e a359 01be a18f 82bc
00000130: 611f 4c3e 7124 7bbe e264 be3d 0ad7 413e
00000140: 54c6 793d ec35 f43d 37ae 55be ddd2 86be
00000150: aff1 87bd 6376 ca3d 5217 1abe 0eda 25be
00000160: edb1 adbd 657b 52be 5b60 de3e 2a07 92bc
00000170: 76a5 8cbc bc4e 62bd cbbb 06bd 2290 5bbd
00000180: 472f 84be 8f7d 2f3e efc9 32bd a041 edbd
00000190: aaba 193e b109 36be 297a cbbe 12f4 713e
000001a0: 6bd2 24be d409 ecbd 0907 99bc 23d2 d23d
000001b0: 8af0 a83d d69b fa3c fead dbbd 38c5 133d
000001c0: b6eb 6dbe 09a3 233e 6aeb a53c 2026 29ba
000001d0: 2bbf cf3c e4b8 0cbe 318c a9bd 67a8 263d
000001e0: 2db2 59be ab4b bebe 8460 1abd 10ba 09be
000001f0: a4a4 f2bc aad9 933e 67a1 b23e 0d17 8d3e
00000200: dc20 c43d 8055 553d c2d2 223e d9ae 09be
00000210: 4712 ffbd ab9c f33d 8d3a 003e 0977 44be
00000220: b2e2 a0be cafb 00be 5130 8abe c228 47be
00000230: c019 7d39 4749 cf3d c0ec 483d 9a7a 603e
00000240: 7609 ec3d 8004 c63a 5ef6 df3c 15bb 88be
00000250: 9891 d1be f8a9 7b3b 97ec e23d 82e8 e3bc
00000260: c57b a3bc 5339 6c3e 254c 2bbe 49c0 a33d
00000270: 8bcb 8a3e fd64 b73c be2e 163e b2fd 7c3d
00000280: df5b 95bd 107c bf3d 174e 29be e2c7 8dbd
00000290: 6a4f ba3e c159 003e 46b1 93ba b805 a4bd
000002a0: 2da0 01be fe4f 95bd 07ef c43e 6480 97be
000002b0: de9c 85bd be94 a3be cb17 a53d 5f03 9abe
000002c0: 7627 883d 2f04 e7bd 7099 913d b2a3 3ebd
000002d0: 52a0 2c3d 2f28 153d 8403 3ebd 2153 be3e
000002e0: 7ab5 9bbd 79f7 503e 2fa1 59be 76d2 133e
000002f0: fcc2 94bd 9099 e43a a4d4 943e bcae 673e
00000300: a6bb 4c3b d354 053e fcf3 24be 11af c63d
00000310: 9a86 4c3e 923e 6b3d b566 e13a 5ab0 823d
00000320: 7daf 393e da2a 173e 1dbd 8fbe 50b7 473e
00000330: 2174 ae3d ac2f 343e 5827 b33e 3de7 6abd
00000340: 3a0a 0dbe 2433 123e 2c21 a23e 415c b6be
00000350: 55fe 463e b6ae e7bc 2caf 24bb 0641 6abe
00000360: 4a67 81bc be73 e23d be5e ba3e 0c4a 36be
00000370: c6ce e13d 55f8 56bb b1a7 1b3c 6326 0fbe
00000380: 7479 233e 3b36 d13c 48f3 5a3d e78f 06be
00000390: 264e 2cbe c418 8dbd 1919 fdbd 147d 34bd
000003a0: 8c76 4bbe 1b30 82be 7e56 2b3d 6402 993c
000003b0: b09c 31be 6d9a 003d 3805 fbbd 7c57 a8bc
000003c0: 3fa8 f33d e17a 1f3d eb0d 2ebd 8f05 163d
000003d0: eefe 70be c423 713e 6a8d 9e3e 718a 9abe
000003e0: 6359 523d 87b8 a43e 231c d9bd b48d eb3d
000003f0: eab4 89be 7447 803d 444a 18bb 593c eabd

fc1.bias f4 [30]
0.0 0.0 0.0 0.0 0.0 0.0 0.0 0.0
0.0 0.0 0.0 0.0 0.0 0.0 0.0 0.0
0.0 0.0 0.0 0.0 0.0 0.0 0.0 0.0
0.0 0.0 0.0 0.0 0.0 0.0
00000000: 0000 0000 0000 0000 0000 0000 0000 0000
00000010: 0000 0000 0000 0000 0000 0000 0000 0000
00000020: 0000 0000 0000 0000 0000 0000 0000 0000
00000030: 0000 0000 0000 0000 0000 0000 0000 0000
00000040: 0000 0000 0000 0000 0000 0000 0000 0000
00000050: 0000 0000 0000 0000 0000 0000 0000 0000
00000060: 0000 0000 0000 0000 0000 0000 0000 0000
00000070: 0000 0000 0000 0000

fc2.weight f4 [30, 30]
-0.2860607 0.0038729412 -0.1692268 0.010849067 0.41055745 0.13444887 0.15520293 -0.20508201
0.11907292 0.05851397 0.07931044 0.01689276 -0.2739626 -0.17027234 0.17069635 0.15795022
-0.2743826 0.23600295 0.13927004 -0.05169649 -0.007100134 -0.14384444 -0.31797314 0.07694856
0.12603065 -0.18841685 0.03784813 -0.30502436 0.13556102 -0.09618618 0.29220068 0.034695674
-0.15566884 0.014539191 -0.026649103 -0.22363994 -0.080807105 0.03266946 -0.24139619 0.069740824
0.084619015 -0.22088733 0.044977214 0.02208577 0.23469059 0.07378441 -0.078521214 -0.075338736
-0.022161324 0.27247956 -0.069850296 -0.18280368 -0.10906045 0.13266025 -0.24655394 -0.0016862564
-0.29609287 -0.45173946 -0.12262455 0.3557975 0.03900024 0.029763795 -0.12522332 0.025017327
-0.030611943 -0.0036561466 -0.035595823 0.11854686 -0.22923946 -0.16135857 0.09050638 0.41542664
0.2017687 0.3149212 0.34722328 -0.023763996 0.29414713 0.22966824 -0.11460245 -0.028804569
-0.06384882 -0.23665652 -0.23626837 -0.13902365 -0.07716018 -0.035719246 -0.02493282 -0.02490475
0.0782088 -0.3762818 -0.0130794635 -0.018801685 -0.18152101 -0.5844382 -0.15331785 0.09684856
-0.12451363 -0.31496903 0.13231799 0.14683688 -0.083447255 -0.038645644 0.1881132 -0.04815172
0.033561725 -0.13769433 0.18978618 -0.08572627 0.3086108 0.069836475 0.12372861 -0.09613282
-0.30140567 -0.14891873 0.15699631 0.03723802 -0.20045933 0.13302137 -0.016012982 0.08256921
0.034639936 0.14917588 -0.15147258 0.04068968 0.052245565 -0.07532336 0.06084524 0.13994189
-0.027381722 0.3952842 -0.2601721 0.32993495 0.23454581 -0.2047371 0.19867378 -0.16810319
-0.014515875 0.12621292 0.2627761 0.033334903 0.024422135 0.22752489 0.17061977 0.22503582
0.10040547 0.1763333 0.22755112 -0.17725863 -0.2766748 -0.052057024 0.31462038 0.027325086
-0.23739281 0.067774855 -0.0047165826 0.23368771 -0.03929377 0.11339009 -0.3566624 0.049296554
0.1058972 -0.058411192 -0.021936193 -0.3964729 -0.071653605 -0.023459122 -0.1394619 -0.0482979
0.12380376 -0.21192884 -0.016877545 -0.0013506897 0.070965275 0.13695095 0.028134739 -0.19257222
-0.37865987 0.26919246 0.04553914 -0.31743538 -0.0960078 -0.12033139 -0.49207422 0.16993263
-0.2861909 0.09325574 -0.24057946 -0.009026522 -0.14713135 -0.23150216 -0.08046644 0.078078866
-0.0089362925 0.2585457 -0.26472342 -0.089976735 -0.3657911 0.112771556 0.22403874 -0.030529145
0.05989953 -0.070938066 -0.080608755 0.06986149 -0.039434977 0.049387 0.2563925 0.04103709
-0.0006716093 0.18642558 -0.11015543 -0.31360027 0.023996538 0.16229792 -0.0014285631 -0.19456792
-0.121452525 0.097421765 0.076554075 -0.15490623 0.14845385 0.10597616 -0.18994737 -0.37299082
-0.11073218 -0.14362267 0.32759997 0.111574225 0.3206555 -0.18372443 -0.23682475 -0.18906283
0.037034005 -0.1374827 -0.055996284 0.34065413 -0.12455787 -0.12856476 -0.0071849376 0.09778258
0.14454846 -0.080506004 -0.015106497 -0.14111826 0.017372798 0.30970904 0.039970435 0.0019736513
0.25174496 0.024969049 0.0015954198 0.0068600643 -0.121745154 0.08011906 0.2192514 -0.12852484
00000000: 8c76 92be 2cd1 7d3b ca49 2dbe 49c0 313c
00000010: 9634 d23e f7ac 093e 84ed 1e3e 0501 52be
00000020: 81dc f33d 58ac 6f3d 836d a23d af62 8a3c
00000030: d344 8cbe df5b 2ebe 06cb 2e3e b4bd 213e
00000040: e07b 8cbe c2aa 713e ce9c 0e3e b3bf 53bd
00000050: 3ea8 e8bb f54b 13be 60cd a2be 3597 9d3d
00000060: 2e0e 013e 59f0 40be a406 1b3d 272c 9cbe
00000070: 82d0 0a3e 43fd c4bd 549b 953e 0d1d 0e3d
00000080: a767 1fbe c935 6e3c 384f dabc de01 65be
00000090: 327e a5bd 69d0 053d 9030 77be 47d4 8e3d
000000a0: bc4c ad3d 4a30 62be 073a 383d 37ed b43c
000000b0: bb52 703e 481c 973d bbcf a0bd 324b 9abd
000000c0: aa8b b5bc 7182 8b3e ac0d 8fbd e330 3bbe
000000d0: 165b dfbd 17d8 073e a378 7cbe 6005 ddba
000000e0: 7c99 97be 654a e7be 9422 fbbd 172b b63e
000000f0: b7be 1f3d 34d3 f33c 8b3a 00be 23f1 cc3c
00000100: e6c5 fabc f69b 6fbb edcc 11bd b2c8 f23d
00000110: c0bd 6abe 2e3b 25be 695b b93d cdb2 d43e
00000120: 749c 4e3e 5a3d a13e 40c7 b13e b6ac c2bc
00000130: 749a 963e 272e 6b3e b0b4 eabd 8ff7 ebbc
00000140: 2cc3 82bd 1656 72be 56f0 71be 375c 0ebe
00000150: 2806 9ebd 584e 12bd ea3f ccbc 0c05 ccbc
00000160: ef2b a03d 02a8 c0be 3f4b 56bc fe05 9abc
00000170: a5e0 39be be9d 15bf 5bff 1cbe 8a58 c63d
00000180: 0101 ffbd 9f43 a1be 5e7e 073e 685c 163e
00000190: 65e6 aabd e54a 1ebd bfa0 403e bd3a 45bd
000001a0: 0578 093d beff 0cbe 4f57 423e 4191 afbd
000001b0: 3c02 9e3e 6d06 8f3d 6d65 fd3d 49e1 c4bd
000001c0: d851 9abe 277e 18be a4c3 203e e586 183d
000001d0: 3645 4dbe c136 083e a82d 83bc 0c1a a93d
000001e0: 9be2 0d3d 90c1 183e a11b 1bbe 39aa 263d
000001f0: 72ff 553d 2243 9abd dc38 793d ed4c 0f3e
00000200: a24f e0bc b162 ca3e 4735 85be 3ced a83e
00000210: c72c 703e 9aa6 51be 2471 4b3e 3e23 2cbe
00000220: fed3 6dbc f63d 013e 978a 863e 2e8a 083d
00000230: ee10 c83c 49fc 683e f3b6 2e3e ca6f 663e
00000240: 62a1 cd3d b790 343e 2903 693e 4983 35be
00000250: 52a8 8dbe bf39 55bd ec15 a13e dcd8 df3c
00000260: 1a17 73be 8bcd 8a3d 908d 9abb d54b 6f3e
00000270: 81f2 20bd 1039 e83d 749c b6be 2feb 493d
00000280: a2e0 d83d 9340 6fbd 88b3 b3bc 7ffe cabe
00000290: 20bf 92bd 582d c0bc 1acf 0ebe 05d4 45bd
000002a0: d38c fd3d e003 59be c742 8abc a009 b1ba
000002b0: 3e56 913d df3c 0c3e d37a e63c a731 45be
000002c0: b5df c1be 98d3 893e 4087 3a3d e486 a2be
000002d0: bd9f c4bd 4e70 f6bd 27f1 fbbe d202 2e3e
000002e0: 9d87 92be defc be3d 765a 76be fae3 13bc
000002f0: 9aa9 16be e70e 6dbe 97cb a4bd d0e7 9f3d
00000300: 8769 12bc 1a60 843e d489 87be b945 b8bd
00000310: f948 bbbe c6f4 e63d 696a 653e 4218 fabc
00000320: 3659 753d fa47 91bd 3416 a5bd 8a13 8f3d
00000330: 9286 21bd 064a 4a3d e145 833e 8216 283d
00000340: f00e 30ba 59e6 3e3e 2c99 e1bd 3790 a0be
00000350: 6394 c43c 6d31 263e a03e bbba d03c 47be
00000360: 1abc f8bd 1085 c73d 62c8 9c3d bd9f 1ebe
00000370: 4904 183e 070a d93d 9081 42be a7f8 bebe
00000380: 8ec7 e2bd d211 13be 2fbb a73e 0781 e43d
00000390: f52c a43e 4222 3cbe 3082 72be b099 41be
000003a0: f8b0 173d 44c8 0cbe 5c5c 65bd 386a ae3e
000003b0: 3218 ffbd 7ba6 03be a06f ebbb 3c42 c83d
000003c0: 8304 143e 55e0 a4bd 3e81 77bc 4e81 10be
000003d0: 6651 8e3c 2f92 9e3e 0ab8 233d 6058 013b
000003e0: b7e4 803e e48b cc3c 681d d13a 64ca e03b
000003f0: 8655 f9bd 7615 a43d 7083 603e 049c 03be

fc2.bias f4 [30]
0.0 0.0 0.0 0.0 0.0 0.0 0.0 0.0
0.0 0.0 0.0 0.0 0.0 0.0 0.0 0.0
0.0 0.0 0.0 0.0 0.0 0.0 0.0 0.0
0.0 0.0 0.0 0.0 0.0 0.0
00000000: 0000 0000 0000 0000 0000 0000 0000 0000
00000010: 0000 0000 0000 0000 0000 0000 0000 0000
00000020: 0000 0000 0000 0000 0000 0000 0000 0000
00000030: 0000 0000 0000 0000 0000 0000 0000 0000
00000040: 0000 0000 0000 0000 0000 0000 0000 0000
00000050: 0000 0000 0000 0000 0000 0000 0000 0000
00000060: 0000 0000 0000 0000 0000 0000 0000 0000
00000070: 0000 0000 0000 0000

val.weight f4 [1, 30]
5.762184e-05 -3.549859e-05 1.5968932e-05 0.00027259078 -3.0532123e-05 7.7065386e-05 -5.150839e-05 0.00027287667
-0.00027665778 0.0002145127 -1.3127876e-06 6.0568073e-06 -9.6847536e-05 0.00044753109 -0.00029321807 -0.00023814669
0.000121292716 8.271211e-06 -1.1834096e-05 0.00024462448 0.00029182585 -0.00017337363 0.00016085336 0.00018383181
-0.00024026226 4.7598343e-05 4.5011326e-05 0.00016287928 -8.2739345e-05 -0.00012993047
00000000: fbae 7138 52e4 14b8 05f5 8537 84ea 8e39
00000010: 9e0f 00b8 2a9e a138 b60a 58b8 e310 8f39
00000020: 610c 91b9 d0ee 6039 0a33 b0b5 943b cb36
00000030: a01a cbb8 9ba2 ea39 10bb 99b9 04b7 79b9
00000040: 885e fe38 95c4 0a37 0e8b 46b7 f140 8039
00000050: 3400 9939 a1cb 35b9 bfaa 2839 fac2 4039
00000060: e9ee 7bb9 55a4 4738 8bca 3c38 93ca 2a39
00000070: 5984 adb8 f23d 08b9
